apianet/models/GustatoryModel.pth (torch, 8014 bytes, 6 tensors)

fc1.weight f4 [32, 5]
00000000: 587d ffbd 4706 06bf e99d b53d 1d03 babe
00000010: 0950 e0be 5a40 663e 913c 963e 13ad e53d
00000020: d313 713e 4a5d 84be 9a0e b93e f73f 4abe
00000030: 5062 16be 3f86 d4be 59f1 2bbe 9821 39bf
00000040: fb25 e3be 351e 30bf ee9d c0be da74 bdbe
00000050: 3021 d83e e1da 303f 6d5a 173f 28fc 213f
00000060: 2740 4f3e 4ff8 da3e 70cf b7be f57d 7abc
00000070: c4b0 2bbe 2f43 c2bd 7588 9a3d 30cb cd3d
00000080: dff5 50be 5bc3 a73e 6cab 2fbe 1d5b e83e
00000090: d137 043f db7d 0f3e e8e6 eebb 9dc3 213f
000000a0: 43e6 343f e4ab e63d 624d 3a3f 8f1b 5e3e
000000b0: 5c3c 143f d774 8bbe 587b 4cbf 8475 1abf
000000c0: e6fc 09bf e3ea dcbe 6ee6 123f 7425 2f3f
000000d0: 8a2d cb3e 076c 293f 9c7f 0e3f a306 2f3e
000000e0: 4c62 083f 108c a83e cac3 543e a3f3 873e
000000f0: bec1 2fbf 4aad edbe f497 e8be 1c29 14bf
00000100: 333f b6bc 404f 533e 083b 143e 9800 5cbe
00000110: 8f7e 0fbf 8acd 773c f993 07bf c1b9 23bf
00000120: c48d eabe c257 4bbf 5431 68be 9c8e 26bf
00000130: b960 04bf 0b47 0cbf 8ebc dcbe cf92 05bf
00000140: 38ba 633e 1820 9fbe 199a 68be b15d b8bc
00000150: b540 d73e 8a31 be3e 8491 073f ef5c e33e
00000160: 7e5d 8bbd 22a0 d3bd ef4c bf3e 7fd4 b4be
00000170: 0bfe 8d3e f521 983e 2f56 803d 5ebf fabe
00000180: 6ffe 51be c22b 3bbf fa2d 25bf c8f5 583b
00000190: 2de3 11bf 4403 23bf b203 af3d fc74 0ebf
000001a0: 038e 2abf baad 10bd 271c a73e 6aed 913e
000001b0: ea29 93be 912c bebe 4c9a 28bf 703c 0cbf
000001c0: 9488 eebe e541 c8be 8be6 0fbd 0dc7 16bf
000001d0: bf70 31bf df5c 57be 49cc 86bd 2b84 43bf
000001e0: 92c4 573f 4843 6f3e e9f4 3d3f dc06 4d3f
000001f0: f6bc 2d3f dd1f 103e ada9 203d d582 2cbe
00000200: 36fe 55bd c678 e53d ea6a 57bd 5708 3e3c
00000210: d6e7 893e 7d1d 0abd 4745 b0bd 82aa c33e
00000220: 5e00 9f3e 5dba 403f af19 933e 7f0b 283f
00000230: 0353 45be d0d1 953e 2afa 22be ac69 32be
00000240: 9dbf ea3d 1bfd 013f 9f2a 213f a623 823e
00000250: a5ef 58be 662b d73e 16c0 42bf ab66 41bf
00000260: f8a6 56bd 1443 bd3d 680e 3ebf 221b cd3e
00000270: adea 4c3f bab8 4f3f 9acc 3a3e c881 ba3d
-0.12475079 -0.5235333 0.088680096 -0.363305 -0.43811062 0.22485486 0.29343084 0.11214652
0.23542719 -0.25852424 0.36143953 -0.19750963 -0.1468594 -0.41508672 -0.16791286 -0.72316885
-0.44364914 -0.6879609 -0.3762049 -0.37003213 0.4221282 0.6908398 0.59122354 0.63275385
0.20239316 0.4276757 -0.3590045 -0.01528882 -0.1676665 -0.094854705 0.07545558 0.100485206
-0.20406292 0.32766232 -0.17155236 0.45382014 0.5164767 0.14012854 -0.0072907098 0.6318911
0.7066385 0.11263254 0.72774327 0.216902 0.579046 -0.2723758 -0.7987571 -0.60335565
-0.5390152 -0.43147954 0.5738286 0.68416524 0.3968318 0.6618046 0.55663466 0.17092375
0.5327499 0.3291936 0.20777813 0.26553068 -0.68655 -0.46421272 -0.4542843 -0.5787523
-0.022246933 0.206357 0.14475644 -0.21484601 -0.5605249 0.015124688 -0.52960163 -0.6395531
-0.45811284 -0.7943078 -0.22675067 -0.65061355 -0.5171009 -0.547959 -0.43112606 -0.5217714
0.22239006 -0.31079173 -0.22715034 -0.022505613 0.42041555 0.3714717 0.52956414 0.4440684
-0.068049416 -0.10333277 0.37363383 -0.35318372 0.27732882 0.29713407 0.06266438 -0.48974127
-0.20507215 -0.73113644 -0.6452328 0.0033105481 -0.5698727 -0.6367686 0.08545627 -0.55647254
-0.6662294 -0.03532193 0.32638666 0.28501445 -0.28742915 -0.37143376 -0.6586044 -0.5477972
-0.46588576 -0.39112774 -0.035131972 -0.5889748 -0.6931266 -0.21031521 -0.06581933 -0.7637355
0.8428432 0.2336551 0.7420183 0.8008859 0.67866457 0.14074655 0.039224315 -0.16846783
-0.052244388 0.11204676 -0.052592196 0.011598668 0.2693469 -0.03371953 -0.086069636 0.38216025
0.31054968 0.7528437 0.28730533 0.6564254 -0.19269948 0.29261637 -0.15915743 -0.17423123
0.114623286 0.50776833 0.6295566 0.25417823 -0.21185167 0.42025298 -0.7607435 -0.75547284
-0.052405328 0.0924131 -0.7424073 0.40059763 0.80045587 0.81141245 0.18242112 0.09106785

fc1.bias f4 [32]
00000000: af2c f93e 6d54 073f 5b77 a4bd 4c98 2339
00000010: f76e 193e a889 a0be 7c13 c8be 71c8 1a3f
00000020: 86aa 9539 fe7a 5eb7 1ee1 8839 d3d6 cf3e
00000030: d0a0 b23e afd3 193f acd5 4b39 70a4 b037
00000040: 8ef9 b1be 3da9 ff3e d1f1 bcbe bd0c b83e
00000050: a9ff 173f 001c a0be a233 c43e f173 4d39
00000060: f281 113f 4409 89be 9fbb 92be ed9c a93e
00000070: 3d46 10be d9ee 113f 22ee a83e 224e 5338
0.48666903 0.528632 -0.08030578 0.00015601626 0.14983736 -0.31355023 -0.39077365 0.604621
0.00028546544 -1.32608675e-05 0.00026107667 0.40593585 0.34888315 0.6008863 0.00019439188 2.1057407e-05
-0.34760708 0.49933806 -0.3690324 0.3594722 0.5937448 -0.31271362 0.38320643 0.00019593515
0.56838906 -0.26764882 -0.2865877 0.33127537 -0.14089294 0.5700508 0.3299418 5.0379087e-05

fc2.weight f4 [32, 32]
00000000: e24e 453e 46a2 c53d d062 1cbd 859c b93e
00000010: b4fe a7be a5b5 38b9 973d 923d bb16 943c
00000020: 2a64 3dbe 946f e63e df78 91bd 5dc9 ab3c
00000030: 1391 933e cb29 943e ff1c b33e c874 353e
00000040: db07 5dbd 6ffc 37bd 3491 ac3d b456 df3e
00000050: 7ffe 4b3e bbe2 bf3d 4069 8b3e 86e1 933e
00000060: b0ae 27be 9498 ff3d b8b8 33be 81db 91be
00000070: 775e 223e fc7d 873d 2324 ec3e 4fda babe
00000080: 764b 4bbe 6b8b 143e 9256 afbd 87ed 44be
00000090: 881f 2c3e 7fe6 acbd ffd3 81bd 133b 4c3e
000000a0: da09 f33e ea8e 013e ab86 f43e d45b 903e
000000b0: e3b2 95be d29a 4dbd b953 66be afec 3c3d
000000c0: 2ce5 303e 08fe 623c c0e8 133d 0d27 30be
000000d0: f8ea e8bd 6f3b 00bd 5191 c6be e49e 10be
000000e0: 3dc0 8c3e 1df8 983d 0ecc b53d acf7 093e
000000f0: fd05 343e 2d47 0d3d 3fc1 07bf 8e95 093f
00000100: ab78 5ebe 1b6c 303e e6b1 a9bc 7335 a0be
00000110: 07d6 ca3e a0c9 65bd bf13 93bd 735b d53d
00000120: c374 003f 9fae 65be b31b da3e 63b6 bf3c
00000130: 33b2 d7be daf9 a4bd faba 99be ee03 28be
00000140: 1739 4c3c c8c8 2d3e d55d 03be 601a 50be
00000150: 99a5 babd 9e8d 063e f8a7 cdbd 1024 85bd
00000160: b77b a93e 4ab7 0f3e 8eaa 093e 0b16 753d
00000170: 6ab4 d43d 1525 313e 1da7 aebe e526 9e3e
00000180: 1fdd 293e 3cfa b03c 6c02 543d 97ff e6be
00000190: 5a42 ef3d 913e 2bbe 73be 36bc d91a 483e
000001a0: 39e5 3ebe 1190 76be c2ac 87be 5045 0a3d
000001b0: a665 0f3d 4e2f 8f3e 3331 e0be 96df 9bbe
000001c0: 291e 06be c8bc 323e f651 da3d 6c17 a53d
000001d0: 5832 073e 5608 45bd ea62 e63d 02eb e3be
000001e0: 90ae 9c3e dedf 803d ef7c 033e e791 153e
000001f0: 787b 2b3e 5b98 6ab9 7669 bdbd c27c 10bf
00000200: d02d 23bd 2dc5 c63d 2cb5 af3d 630a 673d
00000210: 480b 29bd 8e5f e4bd de4d 003e 2f08 e53d
00000220: f2cd 60bd 30fb 1abd 75a4 103e 16fd 77bd
00000230: b540 903d 1f0b ef3d 53d9 b53d 2bc0 e13d
00000240: 55be 4c3d 1905 17be fd17 23be 8d06 c7bd
00000250: 0468 8ebc 57a9 4cbd 9fe8 0fbe 8984 033d
00000260: 0c09 4e3d ccda 05be f837 2f3e 53a9 5bbd
00000270: 5efe af3b c318 32be 2e94 b8bd 8274 02be
00000280: f6ee 1fbd 4c21 afbd 369d 0d3d 7702 95bd
00000290: 4e97 23be 1db7 233e 09ad 33be 121b d43d
000002a0: 9927 c8bd f585 dabc 3959 75bd 27b9 cebc
000002b0: 4df0 16be 2ecd db3d 52dd 0e3e df8c 15be
000002c0: c304 a83d b30d 8bbb 5e87 893d 2075 7fbd
000002d0: cbd0 01be bd3b c83d 2e1c 623d 0a57 233e
000002e0: fb9c 7cbc c2f9 bebd 9790 fbbc bbbc 233e
000002f0: e480 3ebc 010d f03d 77ed a4bd ad7c 5a3d
00000300: 24f8 cf3d a8be 20be 5fe7 cfbd d504 a13e
00000310: 7f59 9ebe b0ec 45bd cbaf 09be e009 1fbd
00000320: d1d5 84be b01b 923e 323d 38be c5b8 eebd
00000330: 9bb1 9c3e 00c5 ac3d f09c b73e bfa5 873e
00000340: 14fe 0a3d 221b 53be 81a7 133e 80e2 8f3e
00000350: 89e8 c43e bac9 633d 19d6 723e 48c8 d13e
00000360: 981f b7be ee75 143b 0b7e 133e 2372 dfbe
00000370: fd60 0abd 9e1b 9fbe 00e5 de3e e45d 70be
00000380: 5e2b dbbc bff0 483e 4e7a 9abd 39a5 d9be
00000390: 016f b1be ec79 dfbd 4e34 703c 7a67 703e
000003a0: 1c42 d2be c061 e6be 2de2 98be 1668 013e
000003b0: a0d3 bb3e 8bac 4f3e 5541 85be e1c5 78be
000003c0: f6a5 613d 3c0d 2a3e 752b 6d3c a0b4 283e
000003d0: b60c 9b3e 85d1 473b b8fc 573e 2929 cdbe
000003e0: e628 1d3c 0322 acbd ee7d 343e 022b 0ebe
000003f0: 5ede 183e 3643 693c 0e00 c63e 4c10 fcbe
0.19268373 0.09650092 -0.038180172 0.36252227 -0.3281151 -0.00017615275 0.071406536 0.018077245
-0.18495241 0.45007002 -0.071031325 0.020970041 0.2882162 0.28938136 0.3498306 0.1772033
-0.05396257 -0.044918474 0.08426133 0.43620837 0.19921301 0.09369417 0.27228737 0.28882998
-0.16375232 0.12480274 -0.17550933 -0.2848778 0.15856348 0.066158265 0.4612132 -0.3649468
-0.19853005 0.14506309 -0.08561434 -0.19231234 0.16808903 -0.08442401 -0.06339263 0.1994441
0.47468454 0.12652174 0.47758994 0.2819506 -0.29238042 -0.050196476 -0.22492875 0.046124157
0.17274922 0.013854511 0.03611064 -0.17202397 -0.11372942 -0.03130668 -0.38782743 -0.14123112
0.27490416 0.07469199 0.08876811 0.13473386 0.1758041 0.034491707 -0.53029245 0.5374383
-0.21725719 0.17228739 -0.020714711 -0.3129078 0.39616415 -0.056100488 -0.07181501 0.10417833
0.50178164 -0.22429894 0.42599258 0.023402398 -0.42128143 -0.08055468 -0.30025464 -0.16407749
0.012464783 0.16971123 -0.12828763 -0.20322561 -0.091136165 0.1313996 -0.10041803 -0.06501019
0.331022 0.14034763 0.13443968 0.059835475 0.10385974 0.17299302 -0.34111872 0.3088905
0.16588257 0.021603696 0.051760122 -0.45116875 0.116825774 -0.16723086 -0.011153805 0.19541492
-0.18642129 -0.24078394 -0.2649899 0.033757508 0.03500905 0.27965778 -0.43787536 -0.3044402
-0.13097443 0.17454827 0.10660164 0.08061108 0.13202798 -0.048103653 0.11249335 -0.44515234
0.3060193 0.06292699 0.12840627 0.14606439 0.16746318 -0.00022372736 -0.09248631 -0.56440365
-0.039838612 0.09705577 0.08579478 0.05640639 -0.041270524 -0.11151038 0.12529704 0.111832015
-0.054883905 -0.037837207 0.14125235 -0.060544096 0.07043592 0.11672043 0.08879342 0.11022981
0.049986202 -0.14748038 -0.1592712 -0.09718046 -0.017383583 -0.049966183 -0.14053582 0.032108817
0.050301597 -0.13071746 0.17111194 -0.053628277 0.005370899 -0.17392258 -0.09012638 -0.12739757
-0.03904625 -0.08551273 0.034573756 -0.07275861 -0.15975687 0.15987821 -0.17546476 0.10356726
-0.09773178 -0.026675204 -0.059899542 -0.025234772 -0.14740105 0.10732494 0.13951614 -0.1460452
0.08204033 -0.0042435764 0.06715272 -0.06236756 -0.12677304 0.09777019 0.055202655 0.15951172
-0.015418286 -0.09324981 -0.030708594 0.15989964 -0.01162741 0.1172123 -0.08053105 0.053341556
0.10154751 -0.1569773 -0.101515524 0.31449 -0.30927655 -0.048321426 -0.13445966 -0.038827777
-0.2594438 0.2853675 -0.17992094 -0.11656336 0.30604252 0.08436012 0.3586192 0.26493642
0.033933714 -0.20615819 0.14419366 0.28102493 0.3845866 0.055612303 0.23714484 0.40973115
-0.35766292 0.00226533 0.1440355 -0.43641767 -0.0337839 -0.31075758 0.43534088 -0.23473316
-0.026754078 0.19623087 -0.07542859 -0.42508867 -0.34655002 -0.109119266 0.014660908 0.23476973
-0.41066062 -0.44996452 -0.29860058 0.12637362 0.36684895 0.20280664 -0.26026407 -0.24294235
0.055089913 0.16606611 0.014475693 0.16475153 0.30283135 0.0030489874 0.21092498 -0.40070465
0.0095922705 -0.08404925 0.17626163 -0.13883594 0.14928576 0.014237216 0.38671917 -0.49231184

fc2.bias f4 [32]
00000000: 5435 9e3e e87d f13d 2873 0cbd f17a 523e
00000010: cc10 c7bd 0e3b 15be 1e8e 693d 2a60 6f3e
00000020: 8736 453d cee5 f5bd 96c7 dc3d e2f9 723e
00000030: 3f3c 96bc 1a02 e23c 3722 5b3e f1a0 9c3e
00000040: f6c2 3a3e 79ac de3c 418b e6bd 4e30 89bd
00000050: 47ce d6b9 4b65 4d3c c366 af3d 96ac 62bd
00000060: ba28 94bc aee6 9a3d d928 2f3e 8d6e 86bd
00000070: 4211 2f3e aeb0 693e 2b16 8fbd 0122 87bd
0.3090006 0.11791593 -0.03428951 0.20554711 -0.097200006 -0.14573309 0.0570203 0.23376527
0.048147704 -0.120067224 0.107802555 0.23728135 -0.018339274 0.027588893 0.2139977 0.3059154
0.18238434 0.02718185 -0.11257029 -0.066986665 -0.0004097095 0.012536357 0.08564522 -0.055340372
-0.018085826 0.0756353 0.17105426 -0.06564055 0.17096427 0.22821304 -0.0698665 -0.065982826

out.weight f4 [3, 32]
00000000: 85f1 f13d 402b 98be 590e d9be ce72 d93e
00000010: 764e e73d c95a 113b 35f8 0abf 15af ab3e
00000020: 9233 4f3e c23d 813d 653a 873e fd3e 9f3e
00000030: f116 83be 03be 72be b34e 9b3e 1af7 35bd
00000040: dc70 cf3e 8d73 5eba 8856 9cbd 177e b4bd
00000050: cab0 ccbd 5e82 fcbe cb7a 1bbc fa1b 493d
00000060: 6fdf 183e 9a9d cb3e 113f 893e 353b 52ba
00000070: ce29 753e e96d 6a3e e1e8 12bf ecd9 91bd
00000080: bf4e debe d2e5 a23e e1a7 f43e f231 423c
00000090: 7770 843d 3096 863d d9aa c5be fd49 a3be
000000a0: 2d5a 823e 27d8 2cbe b310 4fbe 815a 8cbd
000000b0: 283b d23e 41ac fa3e 5a60 953d fa69 dabe
000000c0: 366b c2bd 07a8 f6bd ac4e 2bbd a7fa 0c3e
000000d0: f9ab 993c 2078 993e ad9a f2be a277 ab3d
000000e0: 04f6 393d 0347 20be 7c84 bbbd 09b4 ddbd
000000f0: 07dd 093e 2017 71be 4bc1 aa3e 8914 24be
00000100: 4d32 e53e f4cd 6cbe 8e48 c6bd cc64 73be
00000110: 8e90 233e 5c69 9e3d e84f c63e 8751 56bc
00000120: fb83 e3be 2ce3 713d 2d15 88be ed79 793d
00000130: 369e 023f b5c8 babd 20fc e3be 99d3 393e
00000140: 2d9e d1be a4a9 f8bb abbc 343d df72 f0bd
00000150: c11b d23c b609 3ebe 02f3 db3e 80eb 16be
00000160: e834 38bc aee4 b6be 81d0 4bbe d5c8 95bd
00000170: 5115 debe 4240 55be ba8f 2abe a83b 3abd
0.11813644 -0.29720497 -0.4239376 0.42470402 0.11294262 0.0022179356 -0.54284984 0.33532014
0.20234516 0.063106075 0.2641174 0.31102744 -0.2560344 -0.23705296 0.3033348 -0.044425108
0.40515792 -0.00084858463 -0.07633692 -0.08813112 -0.09994657 -0.49318212 -0.009489725 0.049098946
0.14928983 0.39768678 0.26805928 -0.0008019687 0.23941728 0.2289349 -0.57386595 -0.071216434
-0.43419454 0.31815964 0.4778433 0.011852728 0.064667635 0.06571615 -0.3860691 -0.31892386
0.25459424 -0.1687933 -0.20221214 -0.068532 0.41060758 0.48959544 0.07293768 -0.4265898
-0.09493105 -0.120437674 -0.041823074 0.13767491 0.01875876 0.2997446 -0.47383633 0.083724275
0.045400634 -0.15652089 -0.09156129 -0.108253546 0.13463221 -0.23543978 0.33350596 -0.16023459
0.4476494 -0.2312544 -0.096818075 -0.2376892 0.15973112 0.077349395 0.3873284 -0.013080961
-0.4443663 0.05905454 -0.26578656 0.060907293 0.5102266 -0.09120313 -0.44528294 0.18147124
-0.4094099 -0.007588582 0.04412524 -0.1174066 0.025648 -0.18558392 0.42958838 -0.14738274
-0.011243083 -0.35721344 -0.19903757 -0.07313696 -0.43375638 -0.20825294 -0.1665639 -0.04546705

out.bias f4 [3]
00000000: a4ca b2bd 50e1 423c f9de 5dbe
-0.08730057 0.011894539 -0.21667089
