apianet/models/GustatoryModel.pth (torch, 8024 bytes, 6 tensors)

fc1.weight f4 [32, 5]
000000 d9 a3 3f 3e c0 00 95 3d 3e c1 0a 3e 7f 0b 1a 3f
       0.18714847 0.07275534 0.13550279 0.6017379
000010 ce 5c 23 3e 28 99 15 3f 56 da 9f 3e 3b 0d 5e be
       0.15953371 0.5843682 0.31221265 -0.21684735
000020 aa 97 4d bc 43 31 07 3d 7e 38 fb 3d 3e 3c ce 3e
       -0.012548367 0.033005964 0.122666344 0.40280336
000030 ed 54 10 3e 6c a7 ec bd 8a cf 6f be cf 9a 31 bf
       0.14094897 -0.11555371 -0.23419014 -0.69376844
000040 ce e2 8d be a7 a1 af be ac e2 4d bf 50 78 50 bf
       -0.277121 -0.34303018 -0.80424 -0.8143358
000050 b8 5b 17 3f ad 4e 2c 3f 44 1c 38 3e 64 50 99 3e
       0.59124327 0.6730755 0.17979532 0.29944146
000060 e2 23 24 3f 59 6f 39 3f f0 fc 2b 3f e8 11 33 3f
       0.6411725 0.7243553 0.67182827 0.699492
000070 c4 85 30 3f 09 1f 4b 3f 3d 21 b0 be fa a8 28 be
       0.6895411 0.7934423 -0.3440036 -0.1647071
000080 28 63 d8 be 1a 1e 93 be d4 52 1f be 66 86 2c 3f
       -0.4226315 -0.28733903 -0.1555894 0.67392576
000090 4b 2f 0e 3f d3 b2 22 3f 9d 4e 37 3f 78 31 da 3e
       0.55540913 0.63554114 0.7160433 0.42615867
0000a0 53 e5 40 bc 92 41 b5 3d 21 51 8a be a7 fc f7 bd
       -0.011773425 0.08850397 -0.2701502 -0.121087365
0000b0 7d f1 25 3e 9f f1 f5 be a0 69 26 bf c8 35 5f bd
       0.16205402 -0.48035905 -0.6500492 -0.05449465
0000c0 45 08 21 bf 18 2e df bd 78 79 b7 3d 8c 0e c8 3d
       -0.62903243 -0.108974636 0.08958715 0.097683996
0000d0 0a 5a ba 3e 97 3b 08 3f 98 c5 32 bd 60 6a 50 3f
       0.3639682 0.53215927 -0.04364547 0.81412315
0000e0 0c 45 43 3f d4 01 09 3f 50 3d 04 3f a9 09 4b 3f
       0.7627723 0.53518414 0.51656055 0.79311615
0000f0 5b 77 80 3e cd da b8 3e ac 50 42 3f 32 1d 2b 3f
       0.2509106 0.36104432 0.75904346 0.66841424
000100 af e1 09 3f 81 60 e4 be 7b b4 21 bf 59 2d 85 be
       0.5385999 -0.44604877 -0.63166016 -0.2601116
000110 fd 6b 29 bf 9b b1 12 bf b7 c0 65 be 3a 5a d0 be
       -0.661804 -0.57302254 -0.22436796 -0.40693837
000120 f0 f1 11 bf 56 6e c1 be 35 a8 15 bf 7d 52 bd be
       -0.5700979 -0.37779492 -0.5845979 -0.36976996
000130 22 77 e0 3e f5 1e 4f be c7 a6 15 3e bf 4e bc 3d
       0.4384089 -0.20226653 0.14614402 0.09194707
000140 c6 d1 1f bf a9 e8 58 bf 31 19 01 bf ff 46 b6 be
       -0.62429464 -0.8473001 -0.50429064 -0.3560104
000150 5d 18 21 be a2 46 f0 3e de c6 51 3f 25 52 26 3f
       -0.1573195 0.4692889 0.8194407 0.6496909
000160 63 4f c5 3d 08 bd 62 3d d3 87 54 be ac 65 82 be
       0.096342824 0.055356055 -0.20754938 -0.25468194
000170 61 10 c9 bd 73 07 2d 3e 98 b8 0b bd f4 4a f3 3e
       -0.09817577 0.16897373 -0.03411159 0.47518122
000180 1d 87 1c 3f 62 de 40 3f 7a fe 2f 3f a6 80 ed 3e
       0.61143667 0.7533933 0.68747675 0.46387213
000190 27 18 93 be 23 7a 55 bf f6 f5 35 bf f8 81 f4 be
       -0.28729364 -0.8338949 -0.7107843 -0.47755408
0001a0 e7 82 51 bf dd 08 0c 3e 88 ce f5 ba ff 85 ab 3e
       -0.81840366 0.13675256 -0.0018753568 0.33500668
0001b0 c0 fa 41 be 93 c9 25 bd b0 bc 47 bf 67 a0 94 be
       -0.1894331 -0.04047544 -0.7802229 -0.29028627
0001c0 5f e3 7b bd 2b ad 28 bf a9 cf c3 be 31 7e e9 bd
       -0.061496135 -0.65889233 -0.3824437 -0.11401022
0001d0 f2 56 63 be 31 49 f5 bd 74 46 c7 be 0e 03 ab 3e
       -0.22201136 -0.11976851 -0.3892094 0.33400768
0001e0 11 ed 91 3d 3a d8 18 3d 92 58 91 be 66 dd a0 3e
       0.07125295 0.037315585 -0.28387886 0.31418914
0001f0 72 ac 1a be 22 73 c0 be b4 e8 f1 3d 9d 31 69 3e
       -0.15104845 -0.3758784 0.11811963 0.22772832
000200 98 8c bf 3e 02 df 74 3e 26 e8 08 bf 11 d0 2d bf
       0.37411952 0.23913196 -0.5347923 -0.6789561
000210 c6 4d 05 bf 36 cc 81 be 0a ff 9d be 5a bb 4e bf
       -0.520718 -0.25351113 -0.30858642 -0.80754626
000220 ae 56 34 bf ad 51 36 bc a2 2a fa bb 20 d9 11 bf
       -0.7044476 -0.011127871 -0.0076344768 -0.5697193
000230 fb 01 1f 3f e5 f1 17 3f 3c 02 21 3f 10 bb f5 3c
       0.62112397 0.59353477 0.62894034 0.029996425
000240 61 56 4f 3e 8b 96 10 bf 83 fc 29 be 4e 1a 17 bf
       0.20247795 -0.5647971 -0.16600232 -0.5902451
000250 d3 2b ba be 90 6d be be 06 90 38 bf 20 c1 30 bf
       -0.3636156 -0.37192965 -0.7209476 -0.69044685
000260 89 fb 92 bd d5 45 86 be 73 4a 53 bb c8 54 a8 be
       -0.07176883 -0.26225153 -0.003224042 -0.32877183
000270 d5 48 dd 3e ff b5 72 3e 40 22 9e be 8d db dc be
       0.4321963 0.23702239 -0.30885506 -0.43136254

fc1.bias f4 [32]
000000 63 53 b7 3e d2 32 9c 3e 9d 4d bd 3e 1f ba 0f 3f
       0.35805807 0.30507523 0.36973277 0.56143373
000010 29 7b 10 3d 7b 7e 95 38 84 b4 19 3f 4a 3c d2 3e
       0.035273705 7.1284325e-05 0.6004107 0.41061622
000020 a8 09 be be 33 fb a4 3e f2 2d d5 3e 86 d5 9c 3e
       -0.37116742 0.322229 0.41636616 0.30631655
000030 b1 32 01 3f 8a 14 25 3f 25 37 04 3f 12 9d 83 be
       0.50467974 0.64484465 0.51646644 -0.25705773
000040 3e 1f d8 3e 03 c7 c6 3e 13 f6 0b 3f dc 73 82 39
       0.42211336 0.3882371 0.54672354 0.00024881854
000050 4c 35 e3 3e 1c f6 b5 be 58 21 87 36 43 64 f5 3e
       0.443766 -0.3553933 4.0271952e-06 0.47928056
000060 c7 ff bb be 57 ab 73 bd c4 a3 37 b9 14 11 a6 3e
       -0.3671858 -0.059489574 -0.00017513247 0.32434905
000070 34 87 10 3f 91 7a 3c b9 37 f2 ea 3e 03 25 e4 be
       0.56456304 -0.00017974737 0.4588792 -0.44559488

fc2.weight f4 [32, 32]
000000 51 af 7e 3e 55 61 0a 3e de 6b a5 3e ec ce 24 3d
       0.24871565 0.13513692 0.3230886 0.0402364
000010 4b 82 40 be 4c a4 ee be d1 91 89 3e f0 1f 8a 3d
       -0.18799703 -0.46609724 0.26869062 0.06744373
000020 8a ca 4f bd e2 c7 f8 3d 5a 0a 87 3d 12 04 d9 bd
       -0.050730266 0.121474996 0.06593771 -0.105964795
000030 30 ad 66 3e 3b ad 90 bd 0a fd 08 3e 6b b0 21 3d
       0.22527003 -0.07064291 0.13377777 0.039474886
000040 0e 0c ab 3d 13 68 81 3e 29 09 60 3e 9a ba d7 be
       0.083519086 0.25274715 0.21878494 -0.42134553
000050 c5 73 6d bd 04 7e 25 bd 3c 0f 40 be dd 11 17 bd
       -0.057971735 -0.04040338 -0.18755811 -0.03688227
000060 df e5 3e bd 7b 45 85 3d 74 7a c2 be b7 dc 96 be
       -0.04660594 0.06507393 -0.3798405 -0.29465267
000070 47 08 2f 3e ca 3d a7 be 81 8c e0 bc a6 2c 65 3c
       0.17093001 -0.3266433 -0.027410747 0.013987696
000080 b8 a6 77 3e 30 0b 3b 3e 6c 27 db 3d a6 19 25 bd
       0.24184692 0.18265986 0.107008785 -0.040307663
000090 a4 82 a1 be 2f e8 eb be b9 ff 0a 3e 50 4d 1b 3e
       -0.31544983 -0.4607558 0.13574113 0.15166211
0000a0 1e 4c ed bd 9c 71 18 3e 53 61 8f 3e 97 c1 25 bd
       -0.11586784 0.14887089 0.2800394 -0.040467825
0000b0 ae 5b db 3d c1 06 43 3d 25 e7 f1 3d 22 ae 87 3d
       0.10710846 0.047613863 0.118116654 0.0662501
0000c0 30 de ba bd db 47 7a 3d b0 91 81 3e 9b f8 db be
       -0.0912441 0.061103683 0.25306463 -0.42963108
0000d0 d0 bb 35 3e 1a ce 86 bd e8 ff ee be 0e a2 d8 3c
       0.17747426 -0.065822795 -0.46679616 0.026444461
0000e0 7b e3 c5 3d 3f 02 5b 3c 75 3c 8a be 4e 6c 9a 3c
       0.09662529 0.013367235 -0.2699925 0.018850472
0000f0 ee 8f fd 3c b2 99 6c be d6 32 f3 3d e9 87 8f bd
       0.03095242 -0.23105505 0.118749306 -0.07008345
000100 dc 9a 92 be 49 3f 3a be 2c 3b 74 be 55 2e 86 3d
       -0.28633773 -0.18188204 -0.23850697 0.06551806
000110 5d 45 83 be 91 e0 d1 bd 12 99 4b 3e 5c db 97 be
       -0.25638857 -0.10247911 0.1988261 -0.29659545
000120 68 93 94 bc b8 16 60 3e c0 02 1c be 94 64 aa be
       -0.018136695 0.21883667 -0.15235424 -0.3327986
000130 8e 12 84 be b9 26 89 3e d3 71 1f 3e 3e c5 dc 3d
       -0.25795406 0.26787356 0.15570764 0.107798085
000140 21 88 7b 3e f7 2d 92 be 9e 19 30 3d 90 10 87 be
       0.24563648 -0.28550693 0.04299318 -0.26379824
000150 c7 49 ca 3e 18 03 70 3d 25 d4 0a 3f 4f 0c 07 bb
       0.39509413 0.0585967 0.54229957 -0.0020606702
000160 a2 c8 ef bd da 88 07 be 34 c0 df 3e 00 7a eb 3e
       -0.117081895 -0.13235798 0.43701327 0.45991516
000170 be 76 d4 be 54 45 0b 3f 7f d0 65 3e 7f e5 cf bd
       -0.41496843 0.5440266 0.22442816 -0.10151195
000180 54 c5 10 3d 08 47 02 3d 61 28 20 bc 50 9a f8 3d
       0.035344437 0.031806022 -0.009775252 0.12138808
000190 28 63 f5 3d 6c 04 2c bd 58 d7 a9 bd c6 bb 02 be
       0.11981803 -0.041996405 -0.08293027 -0.12766942
0001a0 2e a0 b3 bd 23 e3 14 3e 05 e7 46 be 8d 33 18 3d
       -0.08770786 0.14539771 -0.19424064 0.037158538
0001b0 d4 25 21 be 47 f4 3f 3d dc 54 77 bd 79 d1 07 3e
       -0.15737087 0.04686382 -0.060383663 0.13263501
0001c0 11 7d 68 bd 4f ef 27 be 7a 7a b9 bd 7a a1 cc bb
       -0.056759898 -0.16399883 -0.09056564 -0.0062448354
0001d0 a6 a8 d4 3d 9d f0 6c bd 71 33 a2 bd cf 18 5f bd
       0.1038373 -0.057846654 -0.07919968 -0.05446702
0001e0 31 59 96 bd b9 71 db 3d dd ba bd 3d 5b 09 5b bd
       -0.07341231 0.1071505 0.09264157 -0.05347572
0001f0 4e 05 c6 3d 86 9b 9f bd 27 f9 aa 3d 18 e8 d9 3c
       0.096689805 -0.077933356 0.08348303 0.026599929
000200 2c 9b b0 3e 09 a8 8f 3e 60 ce c0 3e 99 8c 46 3c
       0.34493387 0.28057888 0.37657452 0.012118482
000210 2b d3 ba 3e 65 36 f6 3e 84 d0 3d 3d ce 02 82 3e
       0.36489233 0.48088375 0.046341434 0.25392765
000220 9d 17 80 3d 07 1c 8b 3d 95 d4 e5 3d 38 2e 74 3e
       0.06254504 0.06792455 0.112221874 0.23845756
000230 97 c3 44 3e 17 a6 25 be ae a3 f7 bc 8f 76 1c 3e
       0.19215237 -0.1617664 -0.030229416 0.15279602
000240 dd 2d a6 bd 1d 16 df 3e 4c d2 33 3e 46 c2 96 3e
       -0.081142165 0.4357156 0.1756069 0.29445094
000250 fd 51 84 be 4f 86 01 3e 19 c7 aa be 60 2d 1e 3e
       -0.25843802 0.12648891 -0.33355024 0.15446997
000260 f0 3b 59 3d ff 04 b5 bd f7 87 b7 be 8c 54 bf be
       0.053035676 -0.088388436 -0.3584592 -0.37369192
000270 13 d0 07 3e 4f d2 b2 be 69 42 61 3d 33 40 9a 3c
       0.13262968 -0.34926078 0.054994974 0.01882944
000280 52 b1 1e 3e 83 e3 d5 3c f7 0f 46 3e 04 6f 80 3d
       0.1549733 0.026109463 0.19342028 0.062711746
000290 b7 73 83 be d2 1d 0a bf 6f c9 56 3e e8 7e 07 be
       -0.2567422 -0.5395175 0.20975278 -0.13232005
0002a0 a2 bd 64 3d a1 60 7c bc 77 52 61 3e 52 19 08 be
       0.05584491 -0.0154038975 0.22004114 -0.13290909
0002b0 39 79 73 3e 2a 29 2d 3e 2c 00 76 3e 5c 91 23 3c
       0.23776712 0.16910234 0.24023503 0.009983387
0002c0 73 80 74 3e 5e 9e 86 bd 4a d1 8e 3e 7f 29 b6 be
       0.23877124 -0.06573175 0.2789405 -0.35578534
0002d0 fb e1 2e 3e 0c dc a3 3c 3f 78 ef be b7 49 89 3d
       0.17078392 0.020002387 -0.46771428 0.06703513
0002e0 dd 35 ce bd 77 01 13 3e 17 77 aa be 0c 91 89 bd
       -0.10068867 0.14356028 -0.33293983 -0.067171186
0002f0 63 35 0d 3e a3 3d 60 be bd 7d 38 3c a0 4e c5 bc
       0.13789897 -0.21898513 0.011260447 -0.024085343
000300 ab 86 2c be c3 18 d2 bd c5 02 7b 3d 4d 64 4e 3d
       -0.16848247 -0.10258629 0.061281938 0.050388623
000310 00 9f 82 3d be bf e6 bd e1 fc fa bd 51 42 95 3d
       0.06377983 -0.11267041 -0.12255264 0.072880395
000320 f4 8f 7e bd f0 1e 63 3d 8e 7c 1f be 55 a5 d2 3d
       -0.062149003 0.055449426 -0.15574858 0.10285441
000330 bf ba ed 3d 7a 48 35 bb 2a d2 0b 3d 1d ac b7 bd
       0.116078846 -0.0027661608 0.034135975 -0.08968375
000340 4f 17 3e bd f8 b6 34 3d c8 b8 c5 bd 8b 1a b4 bd
       -0.046408948 0.044119805 -0.09654385 -0.08794125
000350 55 90 25 3d c2 18 ee 3d bd 55 c3 bd d3 98 df bd
       0.04042085 0.11625816 -0.09537838 -0.10917821
000360 66 79 19 be 00 c1 1f 3e 67 c8 0e bd f5 77 d0 3d
       -0.14987716 0.15600967 -0.034859087 0.1017913
000370 b6 36 07 3d 38 e5 f3 bc a2 1d 4e bc c6 2e 1d 3d
       0.03301116 -0.029772386 -0.012580307 0.038374685
000380 d2 aa 6f 3e 27 04 6a 3e db ca 9d 3e d3 25 1f 3c
       0.23405007 0.22853146 0.3081883 0.009713608
000390 8c f6 e7 3e fd 1d a8 3e d1 9e 12 3e 2f df b1 3e
       0.45305288 0.3283538 0.14318396 0.34740588
0003a0 40 57 26 bd 9a e7 6d be d2 4c 34 3e fa e7 45 3e
       -0.04061055 -0.2323288 0.1760743 0.19326773
0003b0 e6 bb 2d 3e 12 5a 3a 3e 78 54 16 3d 5f 05 12 be
       0.16966209 0.18198422 0.03670165 -0.14259861
0003c0 18 c1 8e be 1a 43 ea 3e 26 a3 e6 3d bb 25 ca 3e
       -0.27881694 0.4575432 0.11261587 0.3948191
0003d0 83 a3 80 be 25 10 33 3e 36 a6 e3 be b6 f2 5e 3e
       -0.2512475 0.17486627 -0.44462746 0.21772274
0003e0 8e e7 6c 3d 3e 37 de bb f7 9b a0 be 3c a0 9c be
       0.057838015 -0.0067814877 -0.31368992 -0.30591
0003f0 b5 7f 06 3e da a8 93 be 7e fc 18 be 6b 0d 34 be
       0.13134654 -0.2883976 -0.14940068 -0.17583244

fc2.bias f4 [32]
000000 1b 9c fa 3d 5b 7a 85 3e 59 4e 9a bc 03 1f 44 be
       0.12236806 0.26069912 -0.018836187 -0.19152455
000010 e2 a4 8c 3e 7b 0d 88 3e 86 28 2d be 49 9b b0 3e
       0.27469546 0.26572785 -0.1690999 0.34493473
000020 8f 49 81 3d ae c2 74 3e 36 cb cd bc 64 9e cf 3a
       0.06312858 0.2390239 -0.025121313 0.0015840051
000030 bc f1 58 3e e2 e0 2b bd 68 93 82 3e 02 54 98 bd
       0.21185964 -0.04196251 0.25503087 -0.07437898
000040 46 48 4c 3d 57 eb 00 be da 0f 6e 3e ab 53 1a bd
       0.049873613 -0.12589775 0.23248234 -0.03767745
000050 c7 c7 3b 3e f7 c5 eb 3d 0e ce 13 be cd 3d 1c 3e
       0.18337928 0.11512368 -0.14434072 0.1525795
000060 19 ef 27 bb 22 9f 77 3e c4 25 0d be 91 45 da bd
       -0.002562469 0.24181798 -0.13783938 -0.106578
000070 4d fd 64 3e b7 14 63 bb d9 d5 e9 3c 65 63 5c 3e
       0.22362252 -0.0034649798 0.028544353 0.21522291

out.weight f4 [3, 32]
000000 87 1b c7 3e 9b 7d 8f 3e 27 e8 0f bf 9c 76 03 3e
       0.3888819 0.28025517 -0.5621361 0.12838215
000010 82 df 7f 3b f7 0e 43 3e a5 2b e5 bd d2 a5 1e 3e
       0.0039043133 0.19048677 -0.11189965 0.15492943
000020 f2 14 34 3e ef cb 60 3e 0b e6 27 be b9 a8 e6 be
       0.17586115 0.21952794 -0.16396348 -0.450506
000030 3d ac 74 3e fa 0b 1f 3e 25 e4 64 3e aa ad b1 be
       0.23893829 0.15531912 0.22352655 -0.34702808
000040 fe 5b f4 be be 1f 72 bd 92 5e 1e 3e 08 ed be bc
       -0.47726434 -0.059112303 0.15465763 -0.023306385
000050 35 bd a2 3e 86 13 a3 3e 0c a9 23 3d 02 eb b2 be
       0.31784979 0.31850833 0.039956138 -0.34944922
000060 9b d0 b2 be 5e 5b a0 3e 1d 48 09 bd 06 ea f3 bd
       -0.34924778 0.31319708 -0.03351604 -0.11909871
000070 8c 76 80 3e 1e 69 fb be 43 96 08 bf d8 f9 a7 3e
       0.25090444 -0.49103636 -0.5335428 0.32807803
000080 a0 50 a1 bd 51 d4 0b be 02 1a 89 bd 24 e1 0a be
       -0.07876706 -0.13655211 -0.06694414 -0.13562447
000090 72 d5 8c 3e 63 66 93 be 79 90 26 3e 1d 4e b9 3e
       0.27506596 -0.28789052 0.1626605 0.36192408
0000a0 a8 38 a8 3e c5 b8 94 3e 20 e8 d3 3c 50 45 4d be
       0.32855725 0.29047218 0.025867522 -0.20045972
0000b0 8a 4c 86 be c1 1c 64 3d 71 6a 70 bd 6f 60 f4 3d
       -0.2623027 0.055691484 -0.05869526 0.11932456
0000c0 0b 19 df be 24 33 ad 3d 07 d2 9c bd 9f 03 57 bd
       -0.43573794 0.0845702 -0.07657247 -0.052493688
0000d0 52 90 c5 be c3 88 24 3e 13 cb 17 be b6 b9 e4 3e
       -0.3858667 0.16067795 -0.1482356 0.44672936
0000e0 dd da de bc a1 40 ad be 5c 70 13 3e 02 27 92 bc
       -0.027203972 -0.3383837 0.1439833 -0.017840866
0000f0 6e 3c cf be 08 c5 a5 3e b2 35 88 3e 2c ec ac be
       -0.40475792 0.32376885 0.26603466 -0.33773935
000100 7a 8e bd be 0e 96 0f be 0c 30 15 3f 25 c4 c7 bd
       -0.37022763 -0.14022085 0.5827644 -0.097542085
000110 fb f9 d3 be ac 38 38 be 42 fd 2b be a0 41 c5 be
       -0.41401657 -0.17990369 -0.16795829 -0.3852663
000120 5c c1 b1 be 6e 9a b3 be a6 ee a8 3a 2d 5e e9 3e
       -0.34717834 -0.35078758 0.0012888506 0.45579663
000130 be 0c af be 74 f2 af bd 68 7f ef be 9c 05 22 3f
       -0.3418941 -0.08591166 -0.4677689 0.6328981
000140 2f 91 b0 3e 85 e8 1e be e2 6f 97 be 2b 29 02 3c
       0.34485766 -0.15518387 -0.29577547 0.0079443855
000150 07 b1 e1 3d 97 de 41 be cb bf 2d be 7f dd e6 bd
       0.110200934 -0.18932568 -0.16967694 -0.11272716
000160 d4 1c e5 3e a4 26 21 3e 2d b0 86 bd b4 f3 cd bd
       0.44748557 0.15737396 -0.065765716 -0.10056248
000170 99 fb ce 3d e5 61 55 be 81 cc 9b be a0 46 80 3e
       0.10106582 -0.20838125 -0.30429462 0.25053883

out.bias f4 [3]
000000 0e 51 a7 bd b4 61 9c bd 50 92 05 3d
       -0.08169757 -0.07635823 0.032610238
