apianet/models/MotorModel.pth (torch, 25058 bytes, 11 tensors)

back.0.weight f4 [64, 8]
0	0x3ea3c3ea	0.31985408
1	0xbdc58af9	-0.096456476
2	0x3dda2563	0.10651662
3	0x3c8eb85b	0.017421892
4	0xbcc57df7	-0.024107916
5	0xbe80fb69	-0.2519181
6	0x3d5d8fcf	0.054092225
7	0x3e97b476	0.29629868
8	0xbea661a0	-0.32496357
9	0x3e89c401	0.26907352
10	0xbe456550	-0.19276929
11	0x3e238b56	0.15971121
12	0x3bcc6f14	0.0062388275
13	0xbd8e0da8	-0.069361985
14	0x3e7b85ab	0.24562709
15	0x3ea5e67a	0.32402402
16	0x3e365638	0.17806327
17	0xbeb4c827	-0.35308954
18	0xbd8a41b6	-0.067508146
19	0xbe685aa0	-0.2269082
20	0x3d908925	0.07057408
21	0x3e0609b0	0.13089633
22	0x3e9eac7e	0.30990976
23	0x3e44bbc0	0.19212246
24	0x3e58d6aa	0.21175638
25	0xbc648967	-0.013948775
26	0xbca654d0	-0.020304114
27	0xbe5310bb	-0.20611851
28	0x3d980852	0.07423462
29	0xbd58655d	-0.052831043
30	0xbd75843e	-0.05994057
31	0xbe00b183	-0.12567715
32	0x3db421f3	0.08795538
33	0x3cf3e5c1	0.029772641
34	0xbe56c064	-0.20971829
35	0xbe0e3426	-0.1388708
36	0xbeba9610	-0.36442614
37	0x3e8b49cd	0.27204743
38	0xbe10d5f2	-0.14144114
39	0xbdfcca0b	-0.12343224
40	0xbcaaacd7	-0.02083437
41	0x3e8ada72	0.27119786
42	0x3ea51001	0.32238773
43	0x3e2c41bb	0.16821949
44	0xbdcc4e97	-0.09975927
45	0xbdfbd914	-0.12297264
46	0xbe00d25d	-0.12580247
47	0xbe2d4af1	-0.16923119
48	0xbe0cfc2f	-0.13768075
49	0xbeaf62a5	-0.34254947
50	0xbe98f8c4	-0.29877293
51	0x3e31352b	0.17305438
52	0xbda8f7eb	-0.082504116
53	0x3e14b512	0.14522198
54	0xbe975c14	-0.29562438
55	0x3e961ccb	0.29318842
56	0xbea04064	-0.31299126
57	0x3d9e8575	0.07740299
58	0x3e84273d	0.25811186
59	0x3d8a62bf	0.067571156
60	0xbe981c02	-0.29708868
61	0x3ea105c2	0.31449705
62	0x3e9b5291	0.3033643
63	0xbeb6e2ad	-0.35719815
64	0x3e13adfe	0.14421842
65	0xbd627fc0	-0.055297613
66	0xbe5f03af	-0.21778749
67	0xbe9cb2f1	-0.3060527
68	0x3e5c14dd	0.21492334
69	0x3e126ae8	0.14298594
70	0x3de3ba5e	0.11119531
71	0x3e08384b	0.13302724
72	0x3dc96c85	0.098351516
73	0xbe288c59	-0.16459788
74	0x3d89dc66	0.06731491
75	0x3d911967	0.07084923
76	0x3e8c1f01	0.27367404
77	0xbc10baee	-0.00883363
78	0xbc996751	-0.018726023
79	0xbe856157	-0.26050827
80	0xbdb6ffa2	-0.08935477
81	0xbead8263	-0.3388854
82	0xbe37be9a	-0.17943802
83	0xbd013a54	-0.031549767
84	0xbb9a3177	-0.0047056037
85	0x3e899446	0.26870936
86	0x3ea7745f	0.32705972
87	0x3e3b1b7f	0.18272208
88	0xbe559f7b	-0.20861618
89	0xbe02335f	-0.12714909
90	0xbe345ce7	-0.17613564
91	0x3e725b4e	0.23667642
92	0xbe792246	-0.2432948
93	0x3c8e6481	0.017381908
94	0x3e594a93	0.21219854
95	0x3e200cf2	0.15629938
96	0x3db68cee	0.08913599
97	0xbbb03204	-0.005377056
98	0xbcb8e748	-0.022571221
99	0x3dfa4bc3	0.12221482
100	0x3c25cddd	0.010119882
101	0x3e4be369	0.19910969
102	0xbc7915f1	-0.015202985
103	0xbeb0ca52	-0.34529358
104	0xbe074ead	-0.13213606
105	0x3c91c414	0.017793693
106	0x3e12fbc8	0.1435386
107	0x3eab9fdb	0.33520398
108	0xbead11d6	-0.3380267
109	0xbe758c4e	-0.23979303
110	0xbeb3ce63	-0.35118398
111	0xbd9707cd	-0.07374535
112	0x3e62b1db	0.22138159
113	0x3e9a6fa7	0.3016331
114	0xbe6d397e	-0.23166463
115	0x3e9426d0	0.28935862
116	0x3e8cd2b3	0.275045
117	0x3e04a769	0.12954487
118	0x3e818aee	0.25301307
119	0x3e8b0309	0.27150753
120	0xbdbed218	-0.09317416
121	0xbeaacc69	-0.33359078
122	0xbe8ae71a	-0.27129441
123	0xbde92df1	-0.11385716
124	0xbeabe729	-0.335748
125	0xbe86d498	-0.2633407
126	0x3ec03b55	0.37545267
127	0x3e8d58b6	0.27606744
128	0xbe8b3ca2	-0.27194697
129	0xbe1535b6	-0.1457127
130	0xbe4b0fe6	-0.19830284
131	0x3e43eba7	0.19132863
132	0xbd876b55	-0.06612269
133	0x3da1fd27	0.07909613
134	0x3dd5ea32	0.1044506
135	0x3eaa09f9	0.33210734
136	0x3dc3cdc3	0.0956073
137	0x3bd5efe2	0.0065288404
138	0x3ddef0e5	0.10885791
139	0x3d9e3316	0.077245876
140	0xbdfd16d9	-0.123578735
141	0xbe8c0b2e	-0.2735228
142	0xbe3bd3bd	-0.1834249
143	0x3dc74bc3	0.09731247
144	0xbe2278a4	-0.15866333
145	0xbe859e8e	-0.2609753
146	0x3e5f6c31	0.21818615
147	0xbe524692	-0.20534733
148	0xbdcf643e	-0.101265416
149	0xbcaa0855	-0.020755926
150	0x3da3dc97	0.080010585
151	0xbe2ebd39	-0.1706437
152	0xbe25c597	-0.16188656
153	0x3ea1d5f2	0.3160854
154	0x3df8bee4	0.121457845
155	0x3b56fe84	0.0032805512
156	0xbea19100	-0.3155594
157	0x3d99eb76	0.07515614
158	0x3d76c122	0.06024278
159	0xbd87f591	-0.06638635
160	0x3e212769	0.1573769
161	0x3e88ed3a	0.2674349
162	0xbe7205d2	-0.23635033
163	0xbdbb0101	-0.09131051
164	0x3e922652	0.2854486
165	0xbe4b3f36	-0.19848332
166	0xbd285106	-0.041092895
167	0x3bab8b1c	0.005235089
168	0x3eb07527	0.3446438
169	0xbb9bea10	-0.004758127
170	0x3e4405e7	0.19142877
171	0x3a8f878d	0.0010950431
172	0x3e1eb0d8	0.15497148
173	0x3e814a8d	0.2525219
174	0xbe4b6f68	-0.19866717
175	0x3e5c7eca	0.21532741
176	0x3ea93747	0.33049986
177	0x3e56d341	0.20979024
178	0xbe8b36ae	-0.27190155
179	0x3eaaaeed	0.33336583
180	0xbdaca87f	-0.084305756
181	0x3e929e59	0.28636435
182	0x3ca5db16	0.02024607
183	0x3e5f2021	0.217896
184	0xbe9bcd7d	-0.30430213
185	0xbe4d75d6	-0.20064482
186	0x3e3e3bc6	0.1857749
187	0xbe0b9e8a	-0.13634697
188	0xbed04387	-0.4067652
189	0x3e808d79	0.25107935
190	0xbc4a6b42	-0.012354674
191	0x3e91d914	0.2848593
192	0xbe1e149c	-0.1543755
193	0x3e8649f5	0.262283
194	0xbe531ac0	-0.20615673
195	0xbdc4f818	-0.09617633
196	0x3cafd064	0.021461673
197	0x3e06d7d7	0.13168274
198	0xbe8ecdea	-0.27891475
199	0x3dcf0043	0.10107472
200	0x3e8e42a5	0.2778522
201	0x3e8da84d	0.27667466
202	0xbe124b46	-0.14286527
203	0xbdd70d37	-0.105005674
204	0xbd1302af	-0.03589123
205	0x3ec85234	0.39125216
206	0xbeb0a1b8	-0.34498382
207	0x3e3c2720	0.183743
208	0xbe200c0c	-0.15629596
209	0x3d978cb4	0.07399884
210	0xbe6b8a33	-0.23001938
211	0x3dfeae2e	0.12435566
212	0xbddb179a	-0.10697861
213	0x3e11ca80	0.14237404
214	0x3dfbc0ca	0.12292631
215	0xbe4464a3	-0.19179015
216	0x3e53fb65	0.20701368
217	0xbdcbe41b	-0.09955617
218	0xbeae65c0	-0.34062004
219	0xbea0749f	-0.31338975
220	0xbe3b7bd9	-0.18308963
221	0xbdbb62d6	-0.09149711
222	0x3d90618d	0.07049856
223	0x3d30eec7	0.043196466
224	0x3ce0f640	0.027461171
225	0x3e3ff675	0.1874636
226	0x3e1d09b7	0.15335737
227	0x3d7d7893	0.061882567
228	0x3ea28071	0.31738618
229	0x3d4f2bb5	0.05057879
230	0x3e164be7	0.14677392
231	0x3e4e8179	0.20166577
232	0x3e2dfb7c	0.16990465
233	0xbe187f19	-0.14892234
234	0x3e973418	0.29531932
235	0xbe90f711	-0.28313497
236	0x3c5750c5	0.013141816
237	0xbd8be644	-0.06831029
238	0x3e4ba2dd	0.19886346
239	0xbdf80c4b	-0.1211172
240	0x3e01abba	0.12663165
241	0x3dbfcece	0.09365617
242	0x3eb35aee	0.3503031
243	0xbe635f82	-0.22204402
244	0x3da66dd7	0.08126419
245	0x3e6f4676	0.23366722
246	0x3e5ed265	0.21759947
247	0x3e9ebae5	0.31001964
248	0x3d9cccfd	0.07656286
249	0x3e0c3c64	0.13694912
250	0x3c6ab499	0.014325284
251	0xbe4f164c	-0.2022335
252	0xbe1f4bd4	-0.1555627
253	0x3e82890e	0.2549519
254	0x3e8f796a	0.2802232
255	0x3e274e21	0.16338398

back.0.bias f4 [64]
0	0x3e2fd5d2	0.1717141
1	0xbeb8de99	-0.3610733
2	0xbde8ac62	-0.113610044
3	0xbdee3c83	-0.116326354
4	0x3e3c3901	0.1838112
5	0x3d898d54	0.06716409
6	0x3e766d6f	0.24065183
7	0x3d1d2cb8	0.038372725
8	0xbe9ba5b5	-0.30399862
9	0xbde7d0d1	-0.113191254
10	0xbe43ae94	-0.19109565
11	0x3e8a3d2d	0.26999798
12	0x3d300809	0.042976413
13	0xbd44eb02	-0.048075683
14	0xbe0144c9	-0.12623896
15	0xbe1c0224	-0.15235192
16	0xbe92364c	-0.2855705
17	0x3e3fb14d	0.18719979
18	0xbe349f7a	-0.1763896
19	0x3cdacaa9	0.026707964
20	0x3cd02c23	0.025411671
21	0xbe1eea28	-0.15519011
22	0x3a3ed86f	0.0007280176
23	0xbdb6d5f4	-0.08927527
24	0xbde1f968	-0.110338986
25	0xbd2e2770	-0.04251808
26	0x3e149bea	0.14512601
27	0xbe6ac636	-0.22927174
28	0xbe0f43be	-0.13990685
29	0x3e96eb33	0.29476318
30	0xbe37e2c9	-0.17957605
31	0xbc16ca17	-0.009203455
32	0x3e8ca920	0.27472782
33	0x3e6cfc35	0.23143084
34	0xbd965003	-0.0733948
35	0x3cad2b05	0.021138677
36	0x3d444411	0.047916476
37	0xbe9f80fc	-0.31153095
38	0x3dada8b4	0.08479443
39	0xbe8887dd	-0.26666155
40	0x3d51f64e	0.051260285
41	0xbe0f87e7	-0.14016686
42	0x3e5f9ca8	0.21837103
43	0x3df5ebc7	0.120078616
44	0x3eb62ea7	0.35582468
45	0xbccb41f4	-0.024811722
46	0xbd8a1103	-0.06741526
47	0xbeaa6b9f	-0.33285233
48	0xbd811e03	-0.063045524
49	0x3ea5102a	0.32238895
50	0x3dda0661	0.10645748
51	0xbe6ae99f	-0.22940682
52	0xbd05b89c	-0.03264676
53	0xbe8fe882	-0.28107077
54	0x3d980602	0.07423021
55	0x3e4e965d	0.20174547
56	0x3ecd7ff8	0.40136695
57	0xbe85795c	-0.26069152
58	0x3db2f86e	0.087387905
59	0xbde9c774	-0.11414996
60	0xbe2e2055	-0.17004521
61	0x3e9964f8	0.29959846
62	0x3e1cbfee	0.1530759
63	0xbe043852	-0.1291211

back.1.weight f4 [64]
0	0x3f7b18c2	0.9808465
1	0x3f7b1069	0.98071915
2	0x3f7dc865	0.991339
3	0x3f80f80c	1.0075698
4	0x3f80f3dd	1.0074421
5	0x3f835bd1	1.0262395
6	0x3f7f57fa	0.99743617
7	0x3f80419a	1.002002
8	0x3f8345a7	1.0255631
9	0x3f81f8a6	1.0154006
10	0x3f80c219	1.0059234
11	0x3f7e08c3	0.9923212
12	0x3f8191d2	1.0122626
13	0x3f84499e	1.0334966
14	0x3f7c963c	0.9866674
15	0x3f7ea27f	0.994667
16	0x3f8498ed	1.0359169
17	0x3f81b49d	1.0133244
18	0x3f80f091	1.0073415
19	0x3f828e34	1.0199647
20	0x3f7d7ffd	0.9902342
21	0x3f7f9331	0.9983397
22	0x3f7db878	0.991096
23	0x3f77d5d5	0.96810657
24	0x3f7bad96	0.98311746
25	0x3f848dca	1.035577
26	0x3f81e861	1.0149041
27	0x3f81ab96	1.0130489
28	0x3f81c44f	1.0138034
29	0x3f82f524	1.0231061
30	0x3f7c45bf	0.98543924
31	0x3f8026e6	1.0011871
32	0x3f816b9e	1.0110967
33	0x3f7d9ede	0.9907054
34	0x3f8126c9	1.0089961
35	0x3f7e0382	0.992241
36	0x3f8013bc	1.0006022
37	0x3f82bbc8	1.0213556
38	0x3f832975	1.0247027
39	0x3f7b7bb3	0.98235625
40	0x3f7fd22e	0.99930084
41	0x3f7c096a	0.98451865
42	0x3f772a70	0.9654913
43	0x3f822818	1.0168486
44	0x3f8196c3	1.0124134
45	0x3f7eb934	0.9950135
46	0x3f7c64cc	0.98591304
47	0x3f80a523	1.0050396
48	0x3f8597a9	1.0436908
49	0x3f80e6e3	1.0070461
50	0x3f7d849b	0.99030465
51	0x3f8d05ac	1.1017356
52	0x3f7ce7ec	0.98791385
53	0x3f800536	1.000159
54	0x3f808a52	1.0042212
55	0x3f8026a4	1.0011792
56	0x3f842a9d	1.0325505
57	0x3f8049cf	1.0022525
58	0x3f80f48e	1.0074632
59	0x3f81e90e	1.0149248
60	0x3f85b1af	1.044485
61	0x3f81597d	1.0105435
62	0x3f803e48	1.0019007
63	0x3f7e6a89	0.9938131

back.1.bias f4 [64]
0	0xbcb73687	-0.022364868
1	0xbc92d259	-0.017922567
2	0xbb0ed3b7	-0.0021793672
3	0x3bd356bc	0.0064495485
4	0x3ba2843e	0.004959612
5	0x3cad48c7	0.021152867
6	0x3be27733	0.0069111823
7	0xbcb72af7	-0.022359354
8	0x3cd3f288	0.025872484
9	0x3c8c0de6	0.017096471
10	0x3b229e10	0.002481345
11	0xbc8074ca	-0.01568069
12	0x3c52f21b	0.012875105
13	0x3c1eda05	0.009695535
14	0xbaa5ae64	-0.0012640473
15	0xbcbb579e	-0.022868928
16	0xbbf9bc95	-0.0076213577
17	0x3a8d47f9	0.0010778896
18	0x3c7e26f3	0.015512216
19	0x3c8541eb	0.016266784
20	0x3bbd4974	0.0057765786
21	0xba88582e	-0.0010402256
22	0xbc3e3ca1	-0.011611135
23	0xbd19a131	-0.03750724
24	0xbba6db3b	-0.0050920523
25	0x3c61835c	0.013764229
26	0x3c008f0c	0.007846605
27	0x3c96b536	0.018396955
28	0xbccee387	-0.025254978
29	0x3b65e53c	0.0035079261
30	0xbabf940b	-0.0014616264
31	0xbbf561bc	-0.0074884575
32	0x3a9955d1	0.0011698549
33	0xbc7c8c95	-0.015414377
34	0xbbe7f3cb	-0.007078623
35	0xbccb926b	-0.024850091
36	0x3bcff4a3	0.0063463016
37	0xbc4f835f	-0.012665599
38	0x3c50a5fb	0.012734885
39	0xbc973d53	-0.018461859
40	0xbbccd0ff	-0.0062505
41	0xbb8e2268	-0.0043375976
42	0xbd2e8d5c	-0.04261528
43	0x3ae9752d	0.001781141
44	0x3b49b768	0.0030779485
45	0xbb90f7c0	-0.0044240654
46	0xbc68ffe3	-0.014221164
47	0xbc4caa65	-0.012491797
48	0x3cc7b2fc	0.024377339
49	0xba145bf0	-0.00056594517
50	0xbba50551	-0.005036034
51	0x3cdb8c54	0.026800312
52	0xbbc725f7	-0.006077524
53	0xbc726b43	-0.014796081
54	0x3a86863b	0.0010263392
55	0xbc070087	-0.008239872
56	0x3c0aed67	0.008479453
57	0x3b0ab01d	0.00211621
58	0xbbf8a1cb	-0.0075876466
59	0x3b27f2f6	0.0025626994
60	0xbc2951a2	-0.010334404
61	0xbb6e0331	-0.003631782
62	0xbb40aaf2	-0.0029398766
63	0xbc9db465	-0.019251058

back.3.weight f4 [64, 64]
0	0x3da7f04a	0.082001284
1	0xbbad3ab6	-0.00528654
2	0xbdc496af	-0.09599053
3	0xbdd914aa	-0.105996445
4	0x3d5dfe06	0.054197334
5	0xbb322f5f	-0.002718888
6	0x3d1a1f75	0.037627656
7	0xbce16e34	-0.02751837
8	0x3b030b48	0.0019995738
9	0xbe023722	-0.12716344
10	0xbdcb27e7	-0.0991972
11	0xbd6054f5	-0.05476852
12	0x3d9beb09	0.07613189
13	0x3d41327d	0.04716729
14	0x3d8dbc1f	0.06920647
15	0xbc28529f	-0.010273605
16	0xbd238e6b	-0.039930742
17	0x3d3ff548	0.046864778
18	0x3dce4015	0.100708164
19	0xbdf501b3	-0.11963215
20	0xbb8f0b7d	-0.004365383
21	0x3da759fb	0.08171459
22	0x3d2aaea6	0.041670464
23	0x3d8f19df	0.069873564
24	0x3da445f8	0.08021158
25	0x3d8c7af4	0.06859389
26	0xbdd085ed	-0.10181794
27	0xbd15f1db	-0.036607604
28	0xbdc9faf0	-0.09862316
29	0x3d66591e	0.056237333
30	0x3ae8b37f	0.0017753689
31	0x3d8c3557	0.06846111
32	0xbccf8f9e	-0.025337037
33	0xbd883bda	-0.06652041
34	0xbd029238	-0.031877726
35	0xbda69e34	-0.081356436
36	0xbda55d5b	-0.08074447
37	0xbd021589	-0.03175882
38	0xbd967219	-0.07345981
39	0xbc6d8e13	-0.014499205
40	0x3db982b3	0.09058132
41	0x3cfd2255	0.03090016
42	0xbdeab422	-0.11460139
43	0xbc38e83b	-0.011285837
44	0xbd8da2be	-0.06915806
45	0x3d02287d	0.031776894
46	0x3aedfcfd	0.0018157061
47	0xbe0a1757	-0.13485466
48	0x3d8eeb9b	0.06978532
49	0x3d2d4839	0.042305205
50	0x3dd4d3cb	0.10391959
51	0xbadd45b0	-0.001688173
52	0xbdd376e6	-0.103254125
53	0xbcd8d337	-0.026467903
54	0xbd96da19	-0.073658176
55	0x3c491a8b	0.012274395
56	0xbc8654ec	-0.016397916
57	0xbc220db1	-0.00989096
58	0xbcfc7199	-0.030815886
59	0xbcb9fd31	-0.022703739
60	0xbdb6e897	-0.08931082
61	0xbda1d73a	-0.07902379
62	0x3de233af	0.11045014
63	0x3d5c9b77	0.0538592
64	0xbd420c68	-0.047375113
65	0xbc016f00	-0.0079
66	0x3dbf5c1a	0.09343739
67	0xbd14c01e	-0.03631603
68	0x3b9fecff	0.004880547
69	0x3cafc731	0.021457287
70	0x3e0a0ab6	0.13480648
71	0xbd551d0e	-0.05202966
72	0x3d45d93c	0.048302874
73	0xbc23faa8	-0.010008492
74	0xbdd2f528	-0.10300666
75	0x3c944d27	0.018103195
76	0x3df11eac	0.11773428
77	0xbdabf32c	-0.08395991
78	0xbddc78d7	-0.10765236
79	0xbdd001f0	-0.101566195
80	0xbe0094a7	-0.12556706
81	0x3d333f9f	0.043761846
82	0xbdea7f40	-0.11450052
83	0x3d9c91e3	0.07645013
84	0x3e05c43f	0.13063143
85	0x3c8ff6af	0.017573683
86	0xbdba2ee4	-0.09090975
87	0x3d2e5471	0.042561
88	0x3d3633f4	0.04448314
89	0x3d331742	0.043723352
90	0x3d149046	0.036270402
91	0x3c985a89	0.018597858
92	0xbdd1438c	-0.10217962
93	0x3e0a951a	0.1353344
94	0xbde8cca9	-0.11367161
95	0xbde09785	-0.109664
96	0xbdbc49c5	-0.09193758
97	0x3e00873e	0.12551591
98	0xbd380ccc	-0.04493408
99	0x3cc7a5b0	0.024370998
100	0xbd78fff1	-0.06079096
101	0xbd7fe647	-0.06247547
102	0x3daf1907	0.085496955
103	0xbdb49cd9	-0.08818979
104	0x3dee5019	0.11636371
105	0x3e07f281	0.13276102
106	0xbdfadc64	-0.122490674
107	0xbd177bdc	-0.036983356
108	0xbda2a5fa	-0.07941814
109	0xbc89dfd4	-0.016830362
110	0x3e023f33	0.12719421
111	0xbe0aa9b5	-0.135413
112	0xbddc0999	-0.10744018
113	0x3ca6002c	0.020263754
114	0x3e06c568	0.13161242
115	0x3e39cbed	0.18144198
116	0x3dd28eae	0.1028112
117	0x3cfee16a	0.031113345
118	0x3da48159	0.080324836
119	0x3d3d6000	0.04623413
120	0xbd165971	-0.03670639
121	0xbccd0409	-0.025026338
122	0xbdc6fd75	-0.09716312
123	0xbd840663	-0.06446531
124	0xbcfe3b76	-0.031034213
125	0xbdf19751	-0.117964394
126	0x3a770c57	0.0009424141
127	0xbc5742d5	-0.013138493
128	0x3d81ce06	0.06338124
129	0xbccf35ae	-0.025294151
130	0xbd92dab6	-0.07170622
131	0xbc9e80dc	-0.019348554
132	0xbdf0869a	-0.11744423
133	0x3be6f7d9	0.0070485887
134	0xbe01409c	-0.12622303
135	0x3d80d0f8	0.062898576
136	0x3da1b6af	0.07896172
137	0xbc96d415	-0.018411675
138	0x3d91dcca	0.0712219
139	0xbbc1cb8e	-0.005914158
140	0xbd0359a6	-0.032067917
141	0x3de42cf8	0.111413896
142	0x3da5c3d2	0.080939904
143	0x3dafe66c	0.08588871
144	0x3d059475	0.032612283
145	0xbd2f261f	-0.042760964
146	0x3daa9374	0.08328906
147	0x3d68c342	0.056826837
148	0xbd8635a4	-0.065532
149	0xbd9f3908	-0.0777455
150	0xbb04b86f	-0.0020251533
151	0x3d108da9	0.035291348
152	0x3dc16cb6	0.09444563
153	0xbd1c0eef	-0.03810018
154	0x3dbcb25e	0.09213708
155	0xbd676503	-0.056492817
156	0xbcf96ca4	-0.030447312
157	0xbdf213c3	-0.118201755
158	0xbd3c21c1	-0.045930628
159	0xbd9514f8	-0.0727939
160	0x3de82f73	0.11337175
161	0xbda7b749	-0.08189256
162	0xbda9efa6	-0.082976624
163	0x3db073a9	0.086158104
164	0x3baabb4b	0.0052103153
165	0x3d7e58cd	0.062096406
166	0x3e0d5bea	0.13804594
167	0x3d5396c2	0.051657446
168	0xbb67b7c5	-0.0035357338
169	0xbde30b37	-0.110861234
170	0xbddd29f5	-0.10799018
171	0x3c1cd48f	0.009572162
172	0x3d6e9be2	0.05825413
173	0x3dbc2f3f	0.09188699
174	0x3db61ea3	0.08892562
175	0xbc26bec9	-0.010177323
176	0x3df23496	0.11826436
177	0x3c69495b	0.014238681
178	0xbb62433e	-0.0034524943
179	0x3dec0b44	0.11525586
180	0x3de0362c	0.109478325
181	0xbdabbe23	-0.08385875
182	0x3d925ec7	0.071469836
183	0xbdcbcf06	-0.09951596
184	0x3c900ae3	0.017583316
185	0xbdf1d568	-0.11808282
186	0x3ca096d6	0.019603174
187	0xbc8bbf4b	-0.017058989
188	0x3d4b5a67	0.04964676
189	0xbdce1963	-0.10063436
190	0xbd59a33c	-0.053134188
191	0xbda87649	-0.08225686
192	0xbd8a2bac	-0.06746611
193	0xbd9b8d28	-0.07595283
194	0xbd85ea24	-0.065387994
195	0x3d81fe6b	0.063473545
196	0xbdb1b52f	-0.08677136
197	0xbdcde56e	-0.10053526
198	0x3d7438cd	0.059624482
199	0x3cc6dfd3	0.02427665
200	0xbd3f21b6	-0.04666301
201	0xbdb4570e	-0.08805667
202	0x3d9afb3f	0.07567453
203	0x3db62b2f	0.08894955
204	0x3da8dc72	0.082451716
205	0x3c71b057	0.014751515
206	0xbdb48fbb	-0.08816477
207	0x3d8be5e1	0.06830955
208	0xbb9629d1	-0.0045826216
209	0x3c2c8945	0.0105307745
210	0x3dd1de31	0.10247458
211	0xbe0fe4a6	-0.14052066
212	0x3d796429	0.060886536
213	0x3dad6627	0.0846675
214	0xb91f0863	-0.00015166546
215	0x3d4bc6c7	0.049750116
216	0x3d20e5e5	0.039281745
217	0xbd41f113	-0.047349047
218	0x3e03e8ee	0.12881824
219	0xbcba61bd	-0.022751683
220	0xbd08e8b0	-0.033425033
221	0xbd4753b9	-0.04866383
222	0xbdeadf5e	-0.11468385
223	0x3de18a4b	0.110127054
224	0xbda24fc4	-0.0792537
225	0xbdbb59af	-0.09147965
226	0xbd356c51	-0.04429275
227	0xbda5607f	-0.08075046
228	0x3ca4a79a	0.02009945
229	0x3dea5be7	0.1144331
230	0xbd171b86	-0.036891483
231	0xbdc46f0c	-0.09591493
232	0x3d663a13	0.056207728
233	0xbda70246	-0.081547305
234	0x3e002fda	0.12518254
235	0x3ddbe611	0.10737241
236	0x3dc44b04	0.095846206
237	0xbcca2913	-0.024677789
238	0x3d1d2a77	0.038370576
239	0x3db82326	0.08991079
240	0x3c25fc3e	0.01013094
241	0x3cea36d0	0.02859059
242	0x3e05c84f	0.13064693
243	0x3d777d16	0.060422026
244	0x3e03037f	0.12794302
245	0xbdcb1c44	-0.099175006
246	0xbd271a97	-0.040796842
247	0xbc1242c7	-0.008927054
248	0xbd2d2775	-0.042273957
249	0xbd6774be	-0.05650782
250	0xbd781ad6	-0.060572468
251	0x3dd74613	0.105114125
252	0x3db00bf8	0.08596033
253	0xbd701127	-0.058610108
254	0xbde27539	-0.11057515
255	0xbd7dd72c	-0.061972782

back.3.bias f4 [64]
0	0xbca0d1d1	-0.019631298
1	0xbd3e88b0	-0.046517074
2	0xbdb8b996	-0.09019773
3	0xbd56beba	-0.052427985
4	0xbc955911	-0.018230947
5	0x3ddf58da	0.10905619
6	0xbc050a4d	-0.008120132
7	0x3beee671	0.0072906544
8	0x3d98c82c	0.07460055
9	0x3dd69e1a	0.10479374
10	0xbd49c13f	-0.04925656
11	0x3de84585	0.11341385
12	0x3d868260	0.06567836
13	0x3de48b25	0.11159352
14	0x3e010f4f	0.12603496
15	0x3db4f1d2	0.08835186
16	0x3db90a6b	0.0903519
17	0xbd84071b	-0.06446668
18	0x3dcde6ac	0.10053763
19	0x3db27872	0.08714379
20	0xbbe3ba01	-0.0069496636
21	0x3d5236f0	0.051321924
22	0xbd790598	-0.06079635
23	0x3d5eebef	0.054424223
24	0xbdafc0f4	-0.08581725
25	0xbd908e0e	-0.07058345
26	0x3b8e41bf	0.0043413336
27	0x3d96445e	0.07337259
28	0xba91665f	-0.0011093131
29	0x3d24ae37	0.040205207
30	0xbdbc9000	-0.09207153
31	0x3cf310fc	0.029671185
32	0xbd7d1d72	-0.06179566
33	0xbd225b87	-0.03963807
34	0xbd920224	-0.071293145
35	0x3df36a22	0.118854776
36	0x3db35df0	0.087581515
37	0x3de4f7db	0.11180087
38	0xbd827149	-0.06369264
39	0xbc4e5911	-0.012594477
40	0x3dc5f295	0.096654095
41	0x3b77c482	0.0037806337
42	0x3d6ac663	0.057318103
43	0xbdb882cb	-0.09009322
44	0xbdb4c132	-0.088259116
45	0x3dbc71cc	0.092013925
46	0x3e021191	0.12702014
47	0x3d9dae04	0.076992065
48	0xbd3a1948	-0.045434266
49	0xbdf5c198	-0.11999816
50	0x3d798f80	0.060927868
51	0xbce898c0	-0.02839315
52	0xbd8d7ce7	-0.06908589
53	0x3b3787ed	0.0028004602
54	0xbb62c67b	-0.0034603167
55	0x3bffa770	0.0078019425
56	0x3dbd57c2	0.09245254
57	0xbdb1bae0	-0.08678222
58	0xbdb80267	-0.08984833
59	0xbda63cd0	-0.08117068
60	0xbdcb8b3e	-0.09938668
61	0x3dddc7c8	0.10829121
62	0x3dfb2c93	0.12264361
63	0xbd6e4f2f	-0.058180984

back.4.weight f4 [64]
0	0x3f7ba18d	0.9829338
1	0x3f82fd9d	1.0233647
2	0x3f7d3426	0.989077
3	0x3f7b1234	0.9807465
4	0x3f82457e	1.0177457
5	0x3f800000	1.0
6	0x3f867c6d	1.0506722
7	0x3f80aca7	1.0052689
8	0x3f7d3025	0.9890159
9	0x3f7d7fc9	0.9902311
10	0x3f7be08b	0.983895
11	0x3f7a86b6	0.978618
12	0x3f801d95	1.0009028
13	0x3f80ab80	1.0052338
14	0x3f7f5733	0.9974243
15	0x3f83c632	1.029486
16	0x3f87c41d	1.0606724
17	0x3f813af3	1.0096115
18	0x3f7f30f4	0.9968407
19	0x3f7bd3ad	0.98369867
20	0x3f81daa6	1.0144851
21	0x3f7aeb01	0.9801484
22	0x3f7e24b1	0.99274737
23	0x3f7a9f85	0.9789966
24	0x3f815950	1.0105381
25	0x3f8727ba	1.0558999
26	0x3f826c14	1.0189233
27	0x3f81c2d2	1.013758
28	0x3f80ab2c	1.0052238
29	0x3f7e7472	0.9939643
30	0x3f805374	1.0025468
31	0x3f81da17	1.0144681
32	0x3f802ff4	1.0014634
33	0x3f922fa5	1.142079
34	0x3f7d40b9	0.98926884
35	0x3f815c53	1.01063
36	0x3f7dfc6b	0.99213284
37	0x3f7f2fb6	0.99682176
38	0x3f8b23b8	1.0870275
39	0x3f7e8052	0.9941455
40	0x3f7d674d	0.9898575
41	0x3f7d9497	0.99054855
42	0x3f7f7b58	0.9979758
43	0x3f7bea04	0.98403955
44	0x3f8425ba	1.0324013
45	0x3f8111f4	1.0083604
46	0x3f8336b4	1.0251069
47	0x3f83ca2b	1.0296072
48	0x3f7edcdf	0.9955577
49	0x3f7b3938	0.98134184
50	0x3f80cdd0	1.0062809
51	0x3f7f3ebc	0.997051
52	0x3f826621	1.0187417
53	0x3f7b8234	0.9824555
54	0x3f874577	1.0568074
55	0x3f87d47b	1.0611719
56	0x3f845e7d	1.0341336
57	0x3f84e3cb	1.0382017
58	0x3f7954b2	0.9739486
59	0x3f7d2244	0.9888041
60	0x3f80bf90	1.005846
61	0x3f806a10	1.0032368
62	0x3f82fe8a	1.0233929
63	0x3f812c80	1.0091705

back.4.bias f4 [64]
0	0xbc411c93	-0.011786598
1	0x3ca7088f	0.020389823
2	0xbc608a50	-0.013704851
3	0xbc50b381	-0.01273811
4	0x3b1f2da1	0.0024288672
5	0x00000000	0.0
6	0x3c85b27d	0.016320461
7	0x3bbe0369	0.0057987464
8	0xbc3c79f8	-0.011503689
9	0xbc4949d2	-0.012285667
10	0xbb5ddff8	-0.003385542
11	0xbb319638	-0.0027097594
12	0x3acb5a02	0.0015514495
13	0x3c27c56c	0.01023994
14	0xbc062692	-0.008187907
15	0xbc5f9e00	-0.01364851
16	0x3d2060f1	0.03915495
17	0x3b02d578	0.0019963663
18	0x3a207bed	0.0006121982
19	0xbcc7a70b	-0.024371644
20	0x3c2ae89f	0.010431438
21	0xbd2fde5d	-0.04293667
22	0x3b8a45ba	0.004219738
23	0xbca6ca22	-0.020360056
24	0x3c7c1615	0.015386124
25	0x3d104f40	0.03523183
26	0x3c7f53c5	0.015583937
27	0x3c941af1	0.018079253
28	0x3bc44019	0.0059890863
29	0xbc21fd3b	-0.009887035
30	0x3b61754e	0.0034402194
31	0x39f75702	0.00047176337
32	0xbc137508	-0.00900007
33	0x3c91cbe0	0.01779741
34	0xbc78c751	-0.0151842395
35	0x3c1123f7	0.008858672
36	0xbb814f83	-0.003946246
37	0xbb27391d	-0.002551622
38	0x3d59eb5f	0.053202983
39	0xbc130da1	-0.008975417
40	0xbc29fa4e	-0.010374619
41	0xbc4e36a3	-0.012586269
42	0xbbadfa01	-0.005309344
43	0xbc713b9b	-0.014723684
44	0x3ca97f73	0.020690655
45	0x3cab7b0a	0.020932693
46	0x3c47c08f	0.012191906
47	0x3c455e0c	0.012046348
48	0xbc2e4d58	-0.010638557
49	0xbcc4d3f5	-0.02402685
50	0xbc473193	-0.0121578155
51	0xbc535298	-0.01289811
52	0x3ad721c9	0.0016413267
53	0xbbc6583b	-0.0060529984
54	0x3d366a6c	0.044535086
55	0x3ca436e5	0.020045707
56	0x3cbd144a	0.023080964
57	0x3c0456e0	0.008077353
58	0xbc0c692b	-0.008569996
59	0xbaeedcd6	-0.0018223773
60	0x3af4ce40	0.001867719
61	0x3c36d868	0.011159994
62	0x3c86bf94	0.016448773
63	0x3cca35e8	0.024683908

dir.weight f4 [2, 64]
0	0x3d92e431	0.0717243
1	0x3a7b4b6a	0.00095861277
2	0x3c81532f	0.015786735
3	0x3db0d824	0.086349756
4	0xbddec268	-0.10876924
5	0x3cba08f0	0.02270934
6	0x3d8fd224	0.07022503
7	0x3dbc2594	0.09186855
8	0x3cdbd331	0.026834102
9	0xbd51b2da	-0.051195957
10	0x3dbd6ed6	0.09249656
11	0xbd8b6c9d	-0.06807826
12	0xbd24cb32	-0.040232845
13	0x3da7651c	0.08173582
14	0xbde12301	-0.109930046
15	0xbc77ad9e	-0.015117077
16	0x3d290aae	0.04126995
17	0x3dc80f22	0.09768511
18	0xbdaf9cd2	-0.08574833
19	0x3aa76bb3	0.0012773186
20	0x3e09e74b	0.13467138
21	0xbc16a801	-0.009195329
22	0xbde7430d	-0.11292086
23	0x3d989112	0.07449545
24	0xbd976434	-0.07392159
25	0xbaaf9391	-0.0013395419
26	0x3d15ad48	0.036542207
27	0x3dc1acf5	0.09456817
28	0xbdd04348	-0.10169083
29	0x3d3f755d	0.046742786
30	0xbdc79453	-0.097450875
31	0xbcafb589	-0.021448867
32	0xbde1949a	-0.110146716
33	0xbd09b5ef	-0.03362077
34	0x3c98adfd	0.018637652
35	0xbdf5ad99	-0.11996002
36	0x3d536885	0.05161335
37	0x3dfdc3c1	0.12390853
38	0x3cfae4e4	0.030626722
39	0x3da1d277	0.07901471
40	0xbdb3fd20	-0.08788514
41	0x3d3cf877	0.046135392
42	0x3d85bf55	0.06530634
43	0xbdafd7a5	-0.08586053
44	0xbdfce6e4	-0.123487264
45	0x3de03482	0.10947515
46	0x3da2ee88	0.079556525
47	0xbe00620c	-0.12537402
48	0xbd8e9086	-0.069611594
49	0xbd2e57e4	-0.042564288
50	0xbde5f4d1	-0.11228336
51	0x3dd752c5	0.10513834
52	0x3c42d73d	0.011892137
53	0x3daff776	0.08592121
54	0xbd00a4ec	-0.03140728
55	0xbdbd019f	-0.09228825
56	0xbd9699a7	-0.073535256
57	0xbe2c6600	-0.16835785
58	0xbd2bacbf	-0.04191279
59	0x3c0179f0	0.007902607
60	0x3d47410d	0.04864602
61	0x3dff062b	0.12452348
62	0x3dea8745	0.11451582
63	0x3d125886	0.035728954
64	0x3de9ea8c	0.114216894
65	0xbdcbcf6a	-0.099516705
66	0xbdd0fef2	-0.10204877
67	0xbda673ce	-0.08127557
68	0x3d9db2d9	0.07700128
69	0x3dbc8aca	0.092061594
70	0x3dad72c5	0.08469156
71	0xbceff930	-0.029293627
72	0x3b890452	0.004181423
73	0xbd2bdf55	-0.041961033
74	0xbdba0c92	-0.09084429
75	0x3cb6d303	0.022317415
76	0x3dde07f2	0.10841359
77	0xbd6f507c	-0.058426365
78	0xbdbf10e0	-0.093293905
79	0x3de1ab42	0.11018993
80	0xbd20f236	-0.03929349
81	0x3defb4fe	0.117044434
82	0xbd50ca80	-0.05097437
83	0x3d4534f9	0.04814622
84	0xbcc62092	-0.024185453
85	0xbbec3e8d	-0.007209605
86	0xbcd83f97	-0.02639751
87	0x3c5579d5	0.013029535
88	0xbcc9317e	-0.024559733
89	0x3d181138	0.037125796
90	0x3d71ef88	0.059066325
91	0xbd25dcb9	-0.0404937
92	0xbd3aac50	-0.045574486
93	0xbd2f76f5	-0.042838056
94	0xbd8a88df	-0.06764387
95	0xbdd2e340	-0.10297251
96	0xb8a5c718	-7.904897e-05
97	0x3d9a420e	0.0753213
98	0x3aa3e65a	0.0012504563
99	0xbd830365	-0.06397132
100	0x3df89e0e	0.121395215
101	0x3dde6be0	0.10860419
102	0xbc45207f	-0.012031673
103	0x3dac122a	0.08401902
104	0xbd933fd6	-0.0718991
105	0xbd1d7cf6	-0.03844925
106	0xbd95cdad	-0.0731462
107	0xbdc4edec	-0.096156925
108	0x3d942c1b	0.07234975
109	0xbda0be05	-0.07848743
110	0x3d9a32c3	0.07529213
111	0x3d91da27	0.071216874
112	0xbdb8033a	-0.089849904
113	0xbd006d23	-0.03135408
114	0xbd2ff6d6	-0.04296001
115	0xbdab64b0	-0.08368814
116	0xbdf500a4	-0.11963013
117	0x3c5d8c8a	0.013522277
118	0x3ceb2e5f	0.028708635
119	0xbd2283d8	-0.039676517
120	0x3d90a5a7	0.07062846
121	0xbd7b1208	-0.061296493
122	0xbda35718	-0.07975596
123	0x3d17628f	0.036959227
124	0x3df3578a	0.11881931
125	0xbdad73d4	-0.08469358
126	0xbd9ab5b4	-0.07554188
127	0x3ce344c7	0.027742757

dir.bias f4 [2]
0	0x3d3af8c7	0.04564741
1	0x3c433ae5	0.011915897

v.weight f4 [1, 64]
0	0x3db682e3	0.089116834
1	0x3dc0e9f2	0.094196215
2	0xbc7cf397	-0.015438936
3	0xbd82f51c	-0.06394407
4	0x3d5a37ef	0.053276
5	0xbda13c18	-0.0787279
6	0xbeaa1cb4	-0.33225024
7	0x3d5a8b6a	0.05335561
8	0x3b76c735	0.0037655358
9	0xbd8c2329	-0.06842644
10	0x3da89e19	0.0823328
11	0x3c6f3fa6	0.014602577
12	0x3cae68e1	0.021290245
13	0x3d7dbe49	0.06194905
14	0xbdf378bf	-0.11888265
15	0xbe7fea09	-0.24991621
16	0x3e3ff24c	0.18744773
17	0x3d85f828	0.06541473
18	0xbd483faf	-0.04888886
19	0xbdc16227	-0.09442549
20	0x3dc37bfb	0.09545132
21	0x3dd1aa24	0.1023753
22	0xbdd7ed2b	-0.10543283
23	0x3dd93380	0.10605526
24	0x3e1c53e1	0.15266372
25	0x3e50a9bc	0.20377249
26	0x3d83046b	0.06397327
27	0x3d863765	0.065535344
28	0x3de6d6f0	0.11271465
29	0xbd40c9c0	-0.047067404
30	0x3dba56b4	0.090985686
31	0xbe1ac61f	-0.1511464
32	0xbe10f1a8	-0.14154685
33	0xbef1beeb	-0.4721597
34	0xbcdeb36a	-0.02718516
35	0x3e2f8671	0.17141129
36	0xbc3eb4e7	-0.01163981
37	0x3ae46fdc	0.0017428356
38	0x3e4888c3	0.1958342
39	0xbd4522cd	-0.04812889
40	0xbd621d9a	-0.05520401
41	0xbd14d621	-0.03633702
42	0xbbde5977	-0.0067855674
43	0xbbfd2d87	-0.0077263745
44	0x3e598386	0.21241578
45	0x3e0fa2c5	0.14026935
46	0x3e00d5d3	0.12581567
47	0x3e046508	0.12929165
48	0xbdb229a2	-0.08699347
49	0xbdd79639	-0.105266996
50	0x3d2def0e	0.04246431
51	0xbe912ccb	-0.28354487
52	0xbed08656	-0.4072749
53	0x3cdf6d82	0.027273897
54	0x3e7b6107	0.24548732
55	0x3e841f46	0.2580511
56	0x3e2839b5	0.16428263
57	0xbd2aa6a3	-0.041662823
58	0x3b3ecf80	0.002911538
59	0xbdca7640	-0.09885836
60	0xbd8c4d8c	-0.068507284
61	0x3dd18111	0.102296956
62	0x3df2f30c	0.11862764
63	0x3e4a5262	0.19757989
