apianet/models/MotorModel.pth (torch, 25058 bytes, 11 tensors)

back.0.weight f4 [64, 8]
000000 10 8c 19 3c 26 4d 22 3d 86 f3 81 3e a8 10 56 3e
       0.009371772 0.039624356 0.25381106 0.20904791
000010 1f 5b 20 be be f5 31 be 00 ca 22 be 3e fa 69 3e
       -0.1565976 -0.173789 -0.1589737 0.22849366
000020 ae 05 38 be 3f 81 5a 3e fc 1c 3d 3e a3 88 8c 3e
       -0.17970917 0.21338366 0.18468088 0.27447996
000030 56 eb 07 3d 48 13 17 3e 39 ad 94 3e e6 b0 33 3d
       0.03318342 0.14753449 0.29038408 0.043869875
000040 e3 4e 9d 3e 5e 64 a9 be 5a 44 77 3b 22 5d ec bd
       0.30724248 -0.33084387 0.003772995 -0.11541201
000050 15 be 18 be 06 0a a8 be f3 fb 34 be 94 c3 f9 bd
       -0.1491626 -0.32820147 -0.17674236 -0.12195507
000060 63 0c e4 bd 61 8c ea 3d e4 22 f5 bd 20 5f 06 bd
       -0.11135175 0.114525564 -0.119695455 -0.032805562
000070 78 56 15 3e 15 7c 88 be 2e 8d 2f 3e 50 ed 90 be
       0.14583766 -0.26657167 0.171437 -0.28306055
000080 ea 78 52 3e b7 7d 8f 3e 0b 02 31 be 3b e3 db bd
       0.20553938 0.280256 -0.17285936 -0.107367
000090 15 6b 9e 3e 1e a8 90 be b7 fc 64 3e 5d 02 88 be
       0.30941072 -0.28253263 0.22362028 -0.26564303
0000a0 0c 9b 6a be 24 29 42 bd 13 91 06 3e a0 4b 88 3e
       -0.22910708 -0.047402516 0.13141279 0.26620197
0000b0 3e 28 98 bd 38 73 5b 3e 58 b2 95 3e 52 25 63 3d
       -0.074295506 0.21430671 0.29237628 0.055455513
0000c0 44 db 87 be f4 f1 1f be 2b e5 ab be 22 d2 37 be
       -0.26534474 -0.15619642 -0.3357328 -0.17951253
0000d0 5a 11 b1 3e 08 5b b4 3c 4f ba 97 3d a1 c7 84 3e
       0.3458355 0.022016063 0.074085824 0.25933555
0000e0 a8 3f 87 be 50 8e 94 be c7 ad 94 3d 87 3b 29 be
       -0.26415753 -0.29014826 0.07259708 -0.16526614
0000f0 36 21 f0 3d 54 f1 64 3e e6 1d b8 bd 79 a9 0c 3e
       0.117250845 0.22357684 -0.08990078 0.13736524
000100 46 54 93 be 87 09 e1 3d 4d 93 01 3c f2 19 af bd
       -0.28775233 0.10988145 0.007908654 -0.085498706
000110 61 ce 0b be 22 24 60 3e 36 3e 85 3e 27 4a fe bd
       -0.13652946 0.21888784 0.26024026 -0.12416487
000120 a7 2b 0c 3e 49 e1 b0 3c dc 21 ba be bd 24 57 3e
       0.13688527 0.0215918 -0.36353958 0.21010108
000130 e9 05 e6 bd ee 53 40 be b5 39 d7 3c c3 ac 3d be
       -0.11231596 -0.18782017 0.026272634 -0.18522935
000140 f5 d3 06 bd b6 d5 e8 3d ee e5 95 3c f1 b2 96 be
       -0.03291698 0.11368887 0.018298116 -0.29433396
000150 45 e3 56 3e 0c 64 02 be 1e 9d a5 3e 64 42 9e 3c
       0.20985134 -0.12733477 0.32346433 0.019318767
000160 f0 da 67 be e0 19 75 bd 6c aa 9e 3e 89 2f 1f be
       -0.22642112 -0.05983913 0.30989397 -0.15545477
000170 df 02 84 bd ee a5 7e 3d 4d 0d af 3d 3f 41 17 be
       -0.0644586 0.06216996 0.08547459 -0.14770983
000180 23 4e 11 bd ad 05 9c 3e 3e 55 d9 bd 12 c2 9a be
       -0.035474908 0.3047308 -0.10611962 -0.3022619
000190 70 cb d8 bd 48 a7 8f be d9 96 a3 be 6e 74 12 be
       -0.105856776 -0.28057313 -0.31951025 -0.14302227
0001a0 eb 77 59 3c 18 9a 0d 3e 48 b3 92 bd d4 0e 66 3e
       0.01327322 0.13828313 -0.071631014 0.22466594
0001b0 87 44 48 be 3b 7c 46 bd 6d d7 52 be d0 d3 d4 3e
       -0.19557391 -0.04845832 -0.20589991 0.4156785
0001c0 78 5a 05 be 03 30 91 be a7 6f 74 bd c7 47 6f 3e
       -0.13022792 -0.28356943 -0.059676792 0.23367225
0001d0 d0 19 e6 bd ca 23 af bd 05 27 f4 3d 83 a0 5e 3e
       -0.11235392 -0.08551748 0.11921505 0.21740918
0001e0 76 f4 7d 3e dd bd f9 3d 30 a7 65 bd ea 68 5a 3e
       0.24800286 0.12194417 -0.056067646 0.21329084
0001f0 eb 69 8e 3e 73 69 63 be 5f 99 00 3e 3f 36 e0 bc
       0.27815184 -0.22208194 0.12558506 -0.027369617
000200 a1 4d 41 3e 47 be 18 be 87 c0 da 3c fb 21 9e be
       0.1887727 -0.14916335 0.026703132 -0.308853
000210 10 9b 93 3e c9 83 81 bc f5 60 a6 be 0f 71 9b be
       0.2882924 -0.01580991 -0.32495847 -0.30359694
000220 ff a4 9d 3e 35 38 5b 3e 55 52 64 be a3 ea 70 be
       0.30789945 0.2140816 -0.22297032 -0.23527007
000230 5d f7 8e be ff 52 d0 3d 78 ba 2b 3e 55 64 ab 3e
       -0.27923098 0.1017208 0.16770351 0.33474985
000240 93 36 be 3d ea 4c 4c bd 0a fa b9 bc c8 78 01 3e
       0.09287753 -0.04987804 -0.022702236 0.1264373
000250 2a e0 ec 3d 46 89 22 be 3f 86 6b be e6 b4 c6 3c
       0.115661934 -0.15872678 -0.2300043 0.024256181
000260 5b 47 a6 3d b6 57 31 be 63 0b 3c 3e 28 d6 b1 3e
       0.08119079 -0.17318615 0.18363719 0.347337
000270 94 77 a7 be 7b a5 a8 be f3 d3 9d 3e 78 36 90 be
       -0.32708418 -0.32938752 0.30825767 -0.28166556
000280 83 1f c5 bd e8 ee 40 3e 53 f4 d6 3c 58 27 a0 be
       -0.09625151 0.18841136 0.02623955 -0.31280017
000290 a3 1a 22 3d 2f 49 b7 3d d3 9b c0 3e 95 5b bf bb
       0.039576184 0.089495055 0.37618884 -0.005839775
0002a0 79 7d 7f 3e 71 f4 83 3d 22 49 a5 3c 3f c3 0f 3e
       0.24950208 0.06443108 0.020176474 0.14039324
0002b0 56 5e 5c bd e8 69 fc 3d ad 09 29 be 24 6f a1 be
       -0.053800903 0.123248875 -0.16507597 -0.31530106
0002c0 99 7e 85 3e f8 a8 79 bd 4b 7a b5 be 6f 88 6d be
       0.2607315 -0.060952157 -0.35444865 -0.23196577
0002d0 b6 9a 80 3e db 86 91 bd cc 2d 8b 3e e8 d2 85 be
       0.25118035 -0.071058 0.27183378 -0.2613747
0002e0 74 f1 f0 3d 91 5b 9b be 50 50 42 be c0 9f 2d 3e
       0.117648035 -0.30343297 -0.1897595 0.16955471
0002f0 52 97 c0 3d dd 03 5b be ce da b2 3d a8 a0 db bd
       0.09403862 -0.21388192 0.0873314 -0.10724002
000300 7b 8d 27 3d 09 a3 15 3e 7d 7f aa 3e 42 08 47 3e
       0.04090641 0.14612974 0.3330039 0.19436744
000310 9a 1e 3a 3d 41 29 79 3e b2 d7 a0 3e a3 8d ba 3d
       0.04543934 0.24332143 0.31414562 0.09109046
000320 b2 28 cc 3d 32 c7 f2 bd 42 cd 81 3e b0 c3 a8 3e
       0.099686995 -0.118544 0.25351912 0.32961798
000330 57 4b 3b 3e 65 c6 e3 bd d7 d1 c0 be ef 10 4f be
       0.18290459 -0.11121825 -0.37660095 -0.20221303
000340 11 bb 34 be ae 8e e8 3d 05 e7 07 3e 5c 56 8d bd
       -0.17649485 0.11355339 0.1327172 -0.06901237
000350 f9 88 8a 3e e9 ca 28 bc df 08 9a 3e 64 4f b9 be
       0.27057627 -0.010302284 0.30084893 -0.36193383
000360 51 fa d7 3d 5b 18 79 3e 14 9f 19 3d 2d 8a 3d bd
       0.10545791 0.24325697 0.037505224 -0.046274353
000370 4b ef 75 be 52 d5 b1 bd e1 9d ba be 3c 76 89 be
       -0.24017064 -0.08683266 -0.36448577 -0.26848018
000380 5b 1f 80 be 45 48 88 3d 8b d3 20 be 36 92 82 3e
       -0.25023922 0.06654409 -0.15705697 0.25502175
000390 59 fe 05 be c8 85 00 3e 65 cf 2e 3e 81 3a f0 be
       -0.13085307 0.12551033 0.17071302 -0.46919635
0003a0 a1 6f 2c be 3a fa 9d be cc 8b 4a 3e 72 76 89 be
       -0.16839458 -0.3085497 0.19779891 -0.2684818
0003b0 2c 7d 5b 3d 37 c4 0e 3e 25 50 a6 3e 1c a1 a5 be
       0.05358617 0.13942038 0.3248302 -0.3234948
0003c0 38 48 47 3e 2a b7 7e 3e 99 b0 45 be f0 22 97 be
       0.19461143 0.24874559 -0.19305648 -0.29518843
0003d0 a6 f1 14 be ee 3f 9b be cb 68 0c 3e ac f9 cf 3d
       -0.14545307 -0.30322212 0.1371185 0.10155043
0003e0 84 49 73 3e df 36 7c 3e da 35 b5 3d 95 bf 2d 3d
       0.23758513 0.24630307 0.08848162 0.042419035
0003f0 de d4 11 3d 39 52 6e be c4 0d b2 3e c2 8c 8a 3e
       0.035603397 -0.23273553 0.34776127 0.27060515

back.0.bias f4 [64]
000000 a6 23 f2 bc 4d 99 01 3e c5 57 18 be ff 2a 9b 3e
       -0.029558014 0.12656136 -0.14877231 0.3030624
000010 b4 cc 5f bd f7 84 0f be 1e 2c 36 be 13 db 67 bd
       -0.05463858 -0.14015566 -0.17790267 -0.05660541
000020 e1 c4 98 3e 91 3a 38 be 1a 29 89 3d 90 01 38 be
       0.29837707 -0.17991091 0.066972926 -0.17969346
000030 5f 51 a6 be 19 3e 8b be c7 78 b6 be 37 34 8d bc
       -0.32483956 -0.27195814 -0.3563902 -0.017236812
000040 6e 5c 99 3e 9e ca e0 bc 3b 9a a2 bd 81 0a 89 3e
       0.2995333 -0.027440365 -0.079395734 0.26765826
000050 ed d6 91 be 5b 53 05 be 5f 8d 1b be d7 a1 43 3d
       -0.28484288 -0.13020079 -0.15190648 0.047761764
000060 3d 8d 2f 3d 68 77 8b 3e 17 85 5e 3e f7 9c 65 3e
       0.042859305 0.27239537 0.21730457 0.22423159
000070 12 16 a7 be 80 bc f3 3d eb ad 57 ba d3 10 b7 3e
       -0.32634026 0.11901188 -0.0008227515 0.35755023
000080 30 84 8e 3e e9 de a9 3e cf b7 6b be 76 11 87 3e
       0.27835226 0.3317788 -0.23019336 0.2638051
000090 bc 78 05 3e 21 2d 83 3b 77 05 66 be 62 24 e1 3b
       0.13034338 0.0040031825 -0.22463022 0.0068707922
0000a0 ca 67 5d bd 14 b6 9c 3d 7b ad ee bd de 50 06 3e
       -0.05405406 0.07651916 -0.116541825 0.13116786
0000b0 e7 1f 22 3e 92 2d c4 bc 7b 38 70 3e 9a fb 8b bd
       0.15832482 -0.02394751 0.23459046 -0.068350986
0000c0 74 f5 5b 3d c3 d4 a9 3d 4b 35 9f be f1 dc 37 be
       0.05370088 0.08292534 -0.31095347 -0.17955376
0000d0 4e d7 83 be 4f 7e 96 be a5 bf c5 bd d1 f7 b3 3e
       -0.25750202 -0.2939324 -0.09655694 0.35150006
0000e0 6e 0b 1a 3e 8c 87 9f 3e cd 8c a6 bd 2c f0 cb bd
       0.15043423 0.31158102 -0.08132324 -0.099579185
0000f0 89 fd 50 3e 3c 1a 25 3d 0d 0f d7 bd e0 bb e8 bc
       0.20409216 0.040308222 -0.105009176 -0.028409898

back.1.weight f4 [64]
000000 88 39 80 3f ee 56 81 3f 90 68 7c 3f 98 d9 81 3f
       1.0017557 1.0104654 0.9859705 1.0144529
000010 24 62 7c 3f 12 9b 7c 3f 5a b2 80 3f dc 73 80 3f
       0.9858725 0.9867412 1.0054429 1.0035357
000020 6e 16 81 3f 42 ff 80 3f 40 46 7b 3f 3a 3c 80 3f
       1.008497 1.0077899 0.9815407 1.001838
000030 d6 3b 80 3f 77 d8 89 3f e1 ff 7c 3f 7b ce 7a 3f
       1.001826 1.0769185 0.9882794 0.97971314
000040 6a ed 7b 3f bc fb 7b 3f 13 32 7e 3f 3f f0 7f 3f
       0.9840914 0.9843099 0.9929516 0.9997596
000050 95 16 87 3f 20 f9 82 3f b4 60 80 3f d1 7e 80 3f
       1.0553766 1.0232277 1.0029511 1.0038701
000060 55 78 80 3f e8 29 80 3f 6c 95 80 3f 8e fe 83 3f
       1.0036722 1.0012789 1.00456 1.0312059
000070 36 af 82 3f b5 6c 80 3f 17 24 7e 3f a4 4b 83 3f
       1.020972 1.0033175 0.9927382 1.0257459
000080 e7 ff 80 3f 14 a8 7f 3f 46 8d 81 3f 01 c0 80 3f
       1.0078095 0.9986584 1.0121238 1.0058595
000090 91 06 7a 3f c6 20 80 3f 46 88 7b 3f 0b 6c 7d 3f
       0.9766627 1.0010002 0.9825481 0.98992985
0000a0 e1 a8 81 3f c2 e7 80 3f 10 a1 82 3f dd b5 7f 3f
       1.0129663 1.0070727 1.0205402 0.99886876
0000b0 e3 32 77 3f 67 f4 82 3f fd c7 7e 3f cc 84 81 3f
       0.9656202 1.0230836 0.9952391 1.0118651
0000c0 ec 2d 80 3f ce 53 81 3f 29 71 81 3f ef c9 81 3f
       1.0014014 1.01037 1.0112659 1.013975
0000d0 48 ae 7b 3f a0 2e 7f 3f dd 47 80 3f 58 94 82 3f
       0.9831281 0.9968052 1.0021931 1.0201521
0000e0 1c 8e 7a 3f cd 4a 7e 3f 92 00 7b 3f b8 5a 80 3f
       0.9787309 0.99332887 0.98047745 1.0027685
0000f0 0f 4c 81 3f 73 e3 84 3f 28 d3 86 3f fa 4f 80 3f
       1.0101336 1.0381912 1.053319 1.0024407

back.1.bias f4 [64]
000000 9d 82 37 bc 26 4e da 3a 3e d6 53 bc 2f 3d 0b 3b
       -0.011200574 0.001665537 -0.012929497 0.0021246185
000010 fc 8d 97 bc 0a cc c9 bb a8 82 2c bb ec 53 bf 3a
       -0.01850032 -0.0061583566 -0.0026322994 0.0014597154
000020 23 15 24 bc ad 9a 71 3c 49 9e 8e bc be 01 0f 3a
       -0.010014805 0.01474635 -0.01740946 0.00054552767
000030 ce 60 a6 bc 8c 57 3c 3d dc 78 8c bc 85 b3 58 bc
       -0.020309832 0.04598193 -0.017147474 -0.013226395
000040 17 12 94 bc 5e f8 91 bc c9 cc dd b9 7d 90 72 3b
       -0.018075032 -0.017818626 -0.00042304982 0.0037012391
000050 ff 02 ab 3c 36 42 96 3b 36 6e f0 3b 4a 8c 7e 3b
       0.020875452 0.0045855297 0.007337357 0.0038840943
000060 97 3d 02 3b 3e 0a 93 3a 5e 56 99 bb fa ab 9b 3b
       0.0019873136 0.0011218262 -0.004679485 0.004750726
000070 f0 bd 10 3c 3a c5 01 3b 17 07 ad 3c 47 90 a7 3c
       0.008834347 0.0019801394 0.021121545 0.020454539
000080 01 a0 30 bc e8 a3 ba bb 39 e3 ce 3b e8 79 94 3a
       -0.010780335 -0.0056958087 0.006313708 0.0011327835
000090 15 dc b4 bc f2 af 6e 3b 65 15 93 bc fd 66 7b bc
       -0.0220776 0.003642079 -0.017954538 -0.015344379
0000a0 f0 ef b9 ba e2 3d a7 3c 8c 14 7c 3b 6b 4e 60 bc
       -0.0014185887 0.02041525 0.0038464395 -0.013690571
0000b0 ac 38 e4 bc 35 18 95 3b d8 aa 51 3a da 47 a5 3c
       -0.027859055 0.004550005 0.0007998175 0.020175863
0000c0 65 30 49 3c 1e 97 e6 bb 44 7a fc 3c 72 b5 90 3b
       0.012279605 -0.0070370575 0.03082002 0.004416161
0000d0 6b 8e 02 bc e4 ec b5 3b 7a 45 47 3c 77 39 c5 3c
       -0.007968525 0.005551921 0.012162561 0.024075253
0000e0 c4 d4 d3 bc 71 ec 62 bc 22 92 4c bc 1d df 86 3b
       -0.02585829 -0.013850317 -0.012486013 0.0041159526
0000f0 78 b5 3a 3c 20 87 9e 3c 94 1e 9b 3c 9b e4 a1 3b
       0.011395805 0.019351542 0.01893548 0.004940582

back.3.weight f4 [64, 64]
000000 c3 05 36 bd 6f 2c cf bb 14 64 9d bd b2 49 6c bd
       -0.04443909 -0.0063224356 -0.07685104 -0.05768747
000010 b0 02 dc ba ed fe 89 3d ff ae 3b 3d 3f 53 47 3d
       -0.0016785469 0.06738076 0.045821186 0.048663374
000020 13 8d a3 bd 1d 57 2f bc 82 40 73 bd 1f c5 f7 3d
       -0.07985892 -0.010701922 -0.05938769 0.12098145
000030 d0 c8 a1 bd f8 c2 8d bd d0 55 ab 3d dd 0c 07 be
       -0.0789963 -0.06921953 0.08365977 -0.131885
000040 ba ed cb 3d 2e 41 6c 3d 65 b3 e3 bc 33 4d ac bc
       0.09957452 0.057679348 -0.027795503 -0.021032905
000050 9f f7 8a 3d f3 8c 3e 3e 89 21 4c bd d2 63 1f bd
       0.06785511 0.18608455 -0.04983667 -0.038913555
000060 19 47 28 bd 8b 25 b5 3d e6 c7 98 bd eb e1 44 bd
       -0.04108343 0.088450514 -0.074600026 -0.048067015
000070 08 58 f8 bc 0c 4e 80 3a 79 a9 02 3e 29 d7 ae 3d
       -0.030315414 0.0009788885 0.12759961 0.08537132
000080 13 d0 06 3d 75 fc b8 3d c4 5b 8a 3d d8 f9 89 bd
       0.03291328 0.09032527 0.06755784 -0.06737107
000090 b6 34 31 3c 11 cd d4 bd cb 0d 81 bd 01 40 a9 bd
       0.01081579 -0.10390676 -0.06301459 -0.08264161
0000a0 b3 8f de 3d 6f bc cc 3d a0 e2 42 3b 4a 87 9d 3d
       0.10867252 0.09996878 0.002973713 0.0769182
0000b0 12 81 a2 bd a5 7e eb 3d b8 ae 52 be e8 9e 0e be
       -0.079347745 0.11498765 -0.20574462 -0.13927805
0000c0 e2 7a ba bd d4 cb 16 3c 48 73 8b bd 57 b1 b6 bd
       -0.09105469 0.00920387 -0.068090975 -0.08920544
0000d0 ed a4 7f bd 6b 2f 8b bd 49 f0 e7 bb 6f 7e 1e 3e
       -0.062413145 -0.06796154 -0.007078205 0.15477918
0000e0 d6 a6 81 bd cf b2 26 3c 47 f8 cc 3d 49 92 ad 3d
       -0.063306496 0.010174467 0.10008293 0.08475167
0000f0 46 39 1a bc 58 fb ea bd 04 9a f9 bd 71 00 ef 3d
       -0.009413069 -0.11473721 -0.12187579 0.11670006
000100 91 21 f3 3d 0b fb 49 bd 02 6a 8b bc 5d 0d 2f bc
       0.11871637 -0.04931168 -0.017018322 -0.010684338
000110 13 50 68 3d 0d 36 fa 3d 4a b1 de bd 10 fe 20 3d
       0.05671699 0.122173406 -0.10873659 0.039304793
000120 5a d0 9e 3d 71 5a 51 3d 8c 90 e8 3d d0 78 b9 bd
       0.07754584 0.051111642 0.11355695 -0.09056246
000130 b1 5a 5a 3d aa dc 14 be 27 22 3b bd 0b a9 61 bd
       0.053309146 -0.14537302 -0.045686867 -0.055092853
000140 6a 2a f0 bc 44 f3 46 3d db a9 fc 3c af 7c 1f bd
       -0.0293171 0.04857184 0.030842712 -0.038937267
000150 67 26 46 bd fa fb 8a 3d f6 44 8c bd 1e 09 ae 3d
       -0.048376467 0.06786342 -0.06849091 0.08497833
000160 f1 26 e3 3d 49 8e ff 3c ae 7a df 3c d4 f1 a1 3d
       0.11091412 0.031195777 0.027280178 0.07907453
000170 91 58 06 3e d4 84 43 3c 55 7f a3 3d eb 11 b8 bd
       0.13119723 0.011933524 0.07983271 -0.089877926
000180 93 c5 b5 bd 1c a3 c5 3d 0d 0c 86 bd c9 b4 62 bd
       -0.08875575 0.09650251 -0.06545267 -0.05534819
000190 50 12 8f 3c b5 35 ea bd 19 49 8a bd f3 d6 c7 3c
       0.017464787 -0.11436025 -0.067522235 0.024394488
0001a0 1c 9e 8e 3d 21 e9 cb bd 25 ff 3e 3d c3 a0 8c bd
       0.06963751 -0.09956575 0.046630044 -0.068666
0001b0 03 8e a2 3d 46 2d 95 bc 5a fa e8 bd 94 36 b4 3d
       0.07937243 -0.018210065 -0.11375876 0.087994725
0001c0 84 22 e2 3d 84 4f 1f bd 16 29 d2 bc 16 9a 80 bc
       0.110417396 -0.03889419 -0.025654357 -0.015698474
0001d0 87 cd 0a 3d 10 56 91 3c 93 65 ac 3d 71 87 25 3d
       0.033887412 0.017741233 0.08417811 0.04041237
0001e0 b0 d0 0e bd 72 ed 15 bd 17 27 59 3d 3a 70 a4 3d
       -0.03486699 -0.0366034 0.053015795 0.08029218
0001f0 79 b6 c2 bc cb 73 b0 bb b4 dc 6b bd ac 9d fb 3d
       -0.02376865 -0.0053848973 -0.057583526 0.12285933
000200 81 f0 5a bd d7 a0 88 bd 7a 01 cc bd 47 63 39 bc
       -0.05345202 -0.06671303 -0.09961219 -0.0113151735
000210 52 f6 06 3d 3f 3d fe 3d e9 ed ad bd ff c6 74 bd
       0.032949753 0.124140255 -0.084926434 -0.05976009
000220 d2 58 b8 3d ea f8 09 bc 8a 01 07 3e 6b 6b c0 3c
       0.09001316 -0.008421162 0.13184181 0.02348872
000230 82 e4 b7 bd 2e b2 13 3d b7 01 92 bd 0c 29 95 bd
       -0.08979131 0.036058597 -0.07129233 -0.0728322
000240 cf 0e b5 bd ff 1a de 3d 9a 17 49 bd 77 03 47 3d
       -0.08840715 0.10844993 -0.049094774 0.04858729
000250 23 21 5c 3c d9 98 ee 3b d3 9d 86 3c 66 aa b3 3d
       0.013435635 0.0072814045 0.016432678 0.08772735
000260 02 08 f3 bb 69 45 b6 3d 0e b2 ed bd b1 ec 8b 3d
       -0.007416726 0.08899958 -0.11606227 0.06832255
000270 b8 54 91 3d a2 42 85 3c be f3 8f bc e1 2e ac bd
       0.07096237 0.016267125 -0.01757228 -0.08407379
000280 94 c5 a6 3c 48 c3 55 bd aa a4 08 be f9 ba a9 3d
       0.020357884 -0.052188188 -0.13344064 0.08287615
000290 35 38 9f bc 31 9a 1e bc f1 61 99 3d 9e 4e e6 3d
       -0.019435981 -0.009680317 0.07489384 0.11245464
0002a0 ac b5 f6 3d 80 03 83 3d e9 84 37 3d 0c 2d dc bd
       0.1204637 0.06397152 0.044804487 -0.107507795
0002b0 14 14 35 bd d3 92 91 3d d7 2a 32 bd 91 6e f1 bd
       -0.0442086 0.071080826 -0.043497887 -0.11788667
0002c0 6d 7c a9 3c 86 36 f1 3d 0b e4 a9 3c 72 92 26 3d
       0.020689214 0.11777978 0.020738622 0.040667005
0002d0 2c 70 91 bd 3e 80 cc bc 9d d0 27 bd 10 5f a5 bd
       -0.07101473 -0.024963494 -0.040970434 -0.08074772
0002e0 1e 94 4d bd 0c 16 cd bd d5 57 97 bd d0 fe 26 bd
       -0.050190084 -0.10013971 -0.073897995 -0.040770352
0002f0 21 76 86 bd 0d 17 8a 3b 54 e2 9f bc 50 db 92 3d
       -0.065655 0.0042141736 -0.019517101 0.07170737
000300 86 84 a3 3d 73 bf 07 3e 69 5d bd bd c9 fd f3 bc
       0.07984261 0.13256626 -0.09246332 -0.0297841
000310 4b 9b 74 bc f3 64 c5 bd e7 c1 97 b9 76 63 c9 3d
       -0.014929603 -0.09638395 -0.00028945433 0.09833424
000320 97 93 04 3d cb 0e bf 3d 14 bf 29 bd e8 5a 93 bd
       0.032367315 0.093289934 -0.041441992 -0.07195073
000330 1d 7f ee bd 9a ac 98 3d 4c b3 ab 3d 5d a0 eb bc
       -0.11645339 0.07454796 0.083838075 -0.02876299
000340 aa 57 fa 3d 24 83 32 ba fc fc e4 bd c4 a9 c4 3c
       0.12223752 -0.00068097026 -0.111810654 0.024006732
000350 d1 82 07 3d 2c c9 6a 3d 4e 22 3e 3d 0c 75 aa 3d
       0.03308374 0.05732076 0.046419434 0.08323106
000360 49 8d 05 bd 8f ea e6 3c 49 05 a5 bd 3a cd 0d 3d
       -0.032605443 0.028188018 -0.08057649 0.034619547
000370 1e 36 76 bb 4d aa d8 bd f0 aa 67 bc cc c7 e0 3d
       -0.0037568877 -0.10579357 -0.014139876 0.10975608
000380 b2 26 03 3a 0f c4 7f bd 17 18 da bd a6 2f 0b 3e
       0.00050030195 -0.062442835 -0.10649126 0.13592395
000390 51 8c ea bd 12 de d0 bc 1d 48 62 bc 86 2c d7 3c
       -0.114525445 -0.025496516 -0.013811138 0.026266348
0003a0 60 7a 9d bd 54 97 01 3e af 05 d0 3d 71 9c a2 3d
       -0.07689357 0.12655383 0.10157334 0.07939995
0003b0 87 b7 2e bd 60 4d 51 3d 95 e2 93 bd bb 94 c8 3d
       -0.042655494 0.05109918 -0.072209515 0.09793993
0003c0 f7 0f 05 3e f9 cb a7 3d 59 69 e3 bd 2e 3b 00 3d
       0.12994371 0.081932016 -0.11104078 0.03130644
0003d0 a9 b3 c1 bb 62 12 4c 3c fb f3 fd 3d c9 24 04 3e
       -0.0059113097 0.012455555 0.12400051 0.12904657
0003e0 ba 11 69 bd df c3 3a bc 18 3c c3 bc 69 f2 12 bd
       -0.05690167 -0.011399238 -0.023832366 -0.03587571
0003f0 15 eb 54 bd 23 b0 dd bd 5d 3c 52 bc 3d 03 31 3d
       -0.051982004 -0.10824611 -0.012831775 0.04321598

back.3.bias f4 [64]
000000 dd 9a b5 3c a0 ef 3c 3d 2d 49 9d 3d 59 c0 58 3d
       0.022168571 0.04612696 0.07679973 0.052917812
000010 78 51 82 3d 2d f1 6b 3d 7b d9 77 3d 4a 4f c3 3d
       0.06363195 0.05760305 0.06051014 0.095366076
000020 1a 10 86 bb 3b 93 f7 bb 28 41 14 3d 08 4f de 3d
       -0.004091275 -0.007555393 0.03619495 0.10854918
000030 c7 e6 8f bd 2f d6 66 3d 39 fe 3d 3d b5 44 91 bd
       -0.07026439 0.056356605 0.046385024 -0.07093183
000040 74 9e ce bd 98 1a a4 3d c6 7d 1d 3d 22 f4 04 bd
       -0.10088816 0.08012885 0.038450025 -0.032459386
000050 f1 a8 06 be 21 da 83 3d 74 f4 db bd 7e 77 9a 3d
       -0.13150384 0.06438089 -0.10739985 0.075423226
000060 f0 95 93 bd de 9e a7 bc 86 0d 31 3c 02 77 ab 3d
       -0.07206333 -0.020461496 0.010806447 0.08372308
000070 ac 60 c6 3d 7d a5 d0 3d 6a 5f 9b 3d d4 da 7e 3d
       0.096864074 0.101878144 0.07586558 0.06222041
000080 58 be d2 bd 66 ae 7e bd ea 3c ae bd 83 a4 8e bd
       -0.102902114 -0.062178038 -0.08507712 -0.06964972
000090 47 cf 28 bd 17 1e 54 3d f8 7e e5 bd 40 46 9e 3c
       -0.0412133 0.05178651 -0.11205858 0.019320607
0000a0 da 41 88 3d 58 17 c3 3d d5 f1 81 bd 2c 1b bc bc
       0.06653185 0.09525937 -0.06344954 -0.022962175
0000b0 67 0d ff bc b6 89 cc 3d 64 d6 f1 bd eb 0d a8 bd
       -0.03113432 0.09987204 -0.1180847 -0.0820578
0000c0 30 57 d1 3d a8 20 09 3d d3 ed 8c 3c 1a 45 9e bd
       0.10221708 0.03347841 0.017203247 -0.07728024
0000d0 3c f6 8f 3b b9 ec 88 3d 4b 4f 2b bd 4b 09 90 bc
       0.004393367 0.06685776 -0.041823667 -0.017582556
0000e0 a1 6b 45 bd bb 6b f5 bd 87 eb 72 bb 64 5a cd 3d
       -0.048198346 -0.119834386 -0.0037066655 0.10027006
0000f0 19 5c a2 bd 75 b9 af bd 6f bc de 3c ee 87 bf 3d
       -0.079277225 -0.08580295 0.027189462 0.093520984

back.4.weight f4 [64]
000000 eb ce 80 3f 54 d9 80 3f 00 00 80 3f 97 5a 80 3f
       1.0063146 1.0066323 1.0 1.0027646
000010 89 fc 7c 3f 15 11 83 3f ac 00 80 3f c9 5f 85 3f
       0.9882284 1.0239588 1.0000205 1.0419856
000020 53 49 7f 3f 08 93 7f 3f 2d 5a 7e 3f a7 bf 84 3f
       0.9972126 0.99833727 0.9935635 1.0370988
000030 f8 11 78 3f 99 1d 7a 3f 28 25 80 3f ef d4 83 3f
       0.9690242 0.9770141 1.0011339 1.0299357
000040 91 bc 86 3f e6 60 7e 3f a2 32 79 3f 12 90 81 3f
       1.0526296 0.99366605 0.97342885 1.0122092
000050 8f c2 7d 3f 14 2e 84 3f 7b 80 76 3f e6 c5 82 3f
       0.99125 1.0326562 0.96289796 1.0216644
000060 48 1c 7d 3f 42 8b 80 3f 1a 2e 7f 3f 16 87 84 3f
       0.9887128 1.0042498 0.9967972 1.0353725
000070 08 3e 7e 3f 7b 7b 7e 3f 66 83 99 3f 82 5b 89 3f
       0.993134 0.99407166 1.1993225 1.0731051
000080 02 70 83 3f be e9 82 3f e0 d6 82 3f a1 db 7b 3f
       1.0268557 1.0227582 1.0221825 0.98382
000090 f7 a1 83 3f 49 e3 85 3f c1 84 84 3f f6 80 7d 3f
       1.0283803 1.0459987 1.0353013 0.99024904
0000a0 70 ef 7a 3f 6c 8a 7e 3f 59 a2 7f 3f 37 c1 7f 3f
       0.980216 0.99429965 0.998571 0.999042
0000b0 82 14 80 3f b3 0e 7e 3f 2a a9 7d 3f 11 d2 80 3f
       1.0006258 0.9924118 0.9908625 1.0064107
0000c0 44 b0 7f 3f 27 73 83 3f 9c c9 7b 3f de 7f 84 3f
       0.99878335 1.0269517 0.98354506 1.0351522
0000d0 00 2e 82 3f b0 7b 83 3f 5e 3e 86 3f b1 d7 80 3f
       1.0170288 1.0272121 1.0487783 1.0065824
0000e0 26 48 7c 3f 7f 57 7e 3f c5 16 7d 3f f7 c4 80 3f
       0.9854759 0.9935226 0.9886287 1.0060109
0000f0 a4 21 7b 3f 34 73 7c 3f 9d e5 79 3f 33 c6 82 3f
       0.98098207 0.98613286 0.9761599 1.0216736

back.4.bias f4 [64]
000000 7e b0 42 3b 90 65 f8 3b 00 00 00 00 81 b4 89 3c
       0.0029707248 0.0075804666 0.0 0.016809704
000010 07 53 ed bb e7 cc 0f 3c e8 ad 03 bc 9c 47 8a 3c
       -0.0072425636 0.00877688 -0.008037068 0.01687985
000020 73 d9 82 bc 32 fa 69 ba da 82 8e 3b ff ff ff 3c
       -0.015972828 -0.00089255266 0.004349095 0.031249998
000030 31 52 fd bc 12 dc d7 bc a6 a2 fd bb 62 1a e7 bb
       -0.030922981 -0.026350055 -0.0077403365 -0.0070527056
000040 b5 5b 9d 3c 35 c0 d7 bb b5 36 90 bc 1d 6a fc 3b
       0.019208768 -0.006584192 -0.017604211 0.0077030794
000050 1c b3 3c bc 03 ea 36 3c 3c 0d e2 bc ed 4b a6 3c
       -0.011517312 0.011164191 -0.027594201 0.020299876
000060 77 1a 03 bb 5d 37 67 3b 50 df 84 3b 20 4f ec 3c
       -0.0020004788 0.0035280802 0.0040549412 0.028846323
000070 11 8e 83 bb fd 66 74 bc 0d 43 15 3d 48 2b 97 3c
       -0.0040147384 -0.014917132 0.036440898 0.018453255
000080 91 13 b7 3c f6 3e 7c bb c3 90 4c 3c dc 91 bd 3b
       0.022348197 -0.0038489676 0.012485686 0.00578521
000090 7c 19 5a 3c b4 88 46 3b bc d3 17 3c c7 ca a9 bc
       0.01331174 0.0030293884 0.00926679 -0.020726575
0000a0 7f c7 85 bc 46 e9 11 bc 79 43 46 bc 5b d8 e1 bb
       -0.016330479 -0.008905714 -0.012101048 -0.0068922467
0000b0 df be b8 bb 83 72 da ba 6f fa 9e 3b 6e e5 6e 3c
       -0.005637988 -0.0016666207 0.0048516314 0.0145810675
0000c0 64 6c ae bb a5 12 c2 3c 5a c6 8e bc 5c f8 13 3c
       -0.0053229798 0.023690531 -0.017428566 0.009031381
0000d0 62 4c 97 3b 6f 19 11 3b be ac c0 3c b7 8a 2b 3c
       0.00461726 0.0022140404 0.02351987 0.010470084
0000e0 44 b4 64 bc 86 57 52 bc 86 ed 33 bc 4c ac 39 3c
       -0.013958994 -0.01283825 -0.010981923 0.011332583
0000f0 fe 5d 94 bc 1d fa 8f bb 61 ff ca bc 00 8a d0 3b
       -0.018111225 -0.0043938295 -0.024779977 0.006364107

dir.weight f4 [2, 64]
000000 b6 89 e5 bc 1e e2 d9 3b a8 21 f7 bc be 99 a6 3d
       -0.028019767 0.0066492697 -0.030167416 0.08134793
000010 3a 70 76 bd cb b4 7b 3c fc 29 db bc 82 1b f0 bd
       -0.06016562 0.015362929 -0.026753418 -0.11723997
000020 b4 af ed bd e8 fb f1 3b c6 8e 80 bc 00 11 56 3d
       -0.11605778 0.007384766 -0.01569308 0.052262306
000030 1b 68 a0 bd 5c b9 a8 37 ea fb 06 3d 50 94 48 bd
       -0.078323565 2.0113475e-05 0.032955088 -0.048969567
000040 cd fc 9b 3d 26 d9 ee bd 2d 8e 4f 3d 27 53 0c be
       0.07616577 -0.116625115 0.0506727 -0.13703595
000050 a9 5e a3 bd 3f 16 85 3c 8b 08 b8 3d 14 ab 76 3d
       -0.07977039 0.01624596 0.089860044 0.060221747
000060 f2 69 8c 3c ea f0 a5 3d 3f e3 a7 3d 36 f2 0f 3e
       0.017140362 0.08102591 0.08197641 0.1405724
000070 d3 e5 0d 3d f5 f7 9c bd 0b 31 96 3d fa 09 c5 bc
       0.034643006 -0.076644816 0.07333573 -0.024052609
000080 af 03 5d 3d 92 2e fd 3d cf ed 8e 3a e2 80 a1 bd
       0.05395859 0.12362398 0.0010904613 -0.078859106
000090 a3 b3 e6 3b 4e a1 2b bd 78 8d 93 3d 9e 99 34 3d
       0.0070404573 -0.04190188 0.072047174 0.044091813
0000a0 a9 bc b4 bd 05 5d 0a be 9b 12 e2 bc 16 72 6f bd
       -0.088250466 -0.13512047 -0.027596762 -0.05845841
0000b0 5e 78 7a 3d 2a 64 19 3c 5e ac 34 3a 80 5c 6b bd
       0.061149947 0.00936226 0.000689214 -0.05746126
0000c0 2d de bf bd 2d 63 60 3d 31 71 c1 bd cf 76 46 bd
       -0.093685485 0.05478208 -0.09445418 -0.04845315
0000d0 45 13 03 3d 19 65 86 bd ee f3 f8 3d a9 31 35 3d
       0.0320008 -0.065622516 0.12155901 0.044236813
0000e0 2e 95 45 bd 86 6f cf bc 8f 5a 09 bc b7 f7 0f 3e
       -0.048237972 -0.025321733 -0.008383407 0.1405934
0000f0 01 d9 00 3d cc c0 6a ba b4 f7 1b bd 48 fa d9 bc
       0.03145695 -0.00089551206 -0.038078025 -0.026608601
000100 d7 e8 47 bd aa 7b 81 3d 0a ab ef bd 29 59 b8 bd
       -0.048806038 0.06322415 -0.11702545 -0.09001381
000110 c6 df 60 3d a1 a0 2c bd bc 2a d4 bd 7e d8 e5 bd
       0.054900907 -0.042145375 -0.103597134 -0.11222933
000120 5f 8f 03 3d df fb 87 bd 04 07 3a 3d fa 52 ed bc
       0.03211915 -0.066398375 0.045416847 -0.02897023
000130 15 86 3d bb f8 ac ac bc 2d f4 9b bd 22 a1 6c bd
       -0.002891903 -0.021078572 -0.07614932 -0.057770856
000140 fb 87 20 bd c2 80 74 bd 64 ae 12 3d 97 1c e9 3c
       -0.03919218 -0.059693106 0.035810843 0.028456016
000150 a3 8b c5 3d 10 f6 de 3d 4c 53 15 bd 8b bd b4 3d
       0.09645774 0.108867764 -0.03645639 0.08825215
000160 0c 15 a4 3d 85 31 b9 3d da 7d c6 bd 1b cd 9f 3d
       0.08011827 0.09042648 -0.09691973 0.07802793
000170 27 92 a6 bd 8a bd 1a 3d 4e ac ce bd 88 3b 21 bd
       -0.08133345 0.037778415 -0.10091458 -0.039363414
000180 07 45 8e bd a4 f7 9d bc 2d 97 94 3d f9 7c 88 3c
       -0.0694676 -0.019283123 0.07255397 0.016661154
000190 4f b9 0d bd 4b 99 52 bd 37 b7 fa 3c 94 e4 64 bc
       -0.034600552 -0.051415723 0.030604942 -0.013970513
0001a0 11 62 6d 3d 9b 8e 7a bd ec 3b 2a 3d 82 d2 31 3d
       0.05795485 -0.061171155 0.041561052 0.043413647
0001b0 f6 b2 a5 bd 7d 6b 1b bd 2a a3 57 bd 44 82 c9 3d
       -0.08090775 -0.037944306 -0.05264584 0.09839299
0001c0 00 d4 bf 3d ec 28 de 3c cd d8 9e 3c 9c 83 1d 3e
       0.09366608 0.027119122 0.019390488 0.15382236
0001d0 ba d8 f0 bc e4 f2 b2 bd 26 62 be 3d 7c db 96 bd
       -0.029400218 -0.08737734 0.09296064 -0.07366082
0001e0 b2 26 6a 3d ec d6 c3 bb 1a 94 81 bd d5 15 cd bd
       0.05716581 -0.0059765484 -0.06327076 -0.1001393
0001f0 d5 02 05 bd 42 ee 8b bd fc be 0f bc 9c 2d 8f 3c
       -0.032473404 -0.068325534 -0.008773562 0.017477803

dir.bias f4 [2]
000000 64 ed ff 3d db 81 d2 bc
       0.124964505 -0.025696686

v.weight f4 [1, 64]
000000 ea c3 5b be 21 9a e1 bc d8 3b e7 3c 9e 98 04 bb
       -0.21461454 -0.027539315 0.028226778 -0.0020232568
000010 e3 87 bb 3d 34 ad ba 3d 34 49 3c bd 5e d5 08 be
       0.09156778 0.09115067 -0.04596825 -0.13362643
000020 71 50 7e 3a 43 7f a0 3c ee b9 40 be 7e 9a 1e 3e
       0.0009701318 0.019591933 -0.18820927 0.15488622
000030 ca 35 a8 bd eb 74 08 bd 1f 06 44 bc 64 e9 c7 bd
       -0.082133844 -0.033314627 -0.01196435 -0.097613126
000040 3d a1 0f 3e b0 64 3c bd 85 41 c6 bc da 69 19 be
       0.14026351 -0.04599446 -0.024201164 -0.14981785
000050 4f b7 cd 3d 9a 57 96 3e 25 5c 5e bc cc 2c 5f 3e
       0.10044729 0.2936371 -0.013571774 0.21794432
000060 bf 09 7e bb 70 2c 1f be 4f 70 b0 bd ec 63 0e 3e
       -0.0038763133 -0.15544295 -0.08615171 0.13905305
000070 76 d7 6e bd 11 b0 16 be 51 50 61 3e 55 fb 72 3e
       -0.05831095 -0.14715602 0.22003295 0.23728688
000080 7a 27 c4 3d 78 28 b9 3d b2 80 31 3e dd f4 8c bd
       0.09577842 0.09040922 0.1733425 -0.068826415
000090 86 54 d6 3d b9 30 36 bd ab 2c 43 3e e0 58 36 be
       0.1046534 -0.04448006 0.19060008 -0.1780734
0000a0 4f 37 a7 bd 3f 38 41 bd 8b 5d b8 3d a3 4a f3 bd
       -0.08164846 -0.04717278 0.09002217 -0.1187947
0000b0 5d aa 96 bd 9a 4b 0b 3d 0f 04 17 3d cf 72 95 be
       -0.07356713 0.034007646 0.036869105 -0.29189155
0000c0 89 b8 51 3c e1 d5 a9 3d ea 1c b5 3d e1 af b6 bd
       0.012800344 0.08292747 0.088434055 -0.08920265
0000d0 74 ce c0 bd 9f 76 fa 3d 3c b3 3e 3e e4 d2 6d 3d
       -0.09414378 0.122296564 0.1862306 0.05806245
0000e0 33 8c c3 3c 0c 6e 81 bb ee 12 9c 3d 44 78 35 bc
       0.023870563 -0.003949886 0.07620798 -0.011076037
0000f0 62 5d c2 3d b7 a8 95 3d 7a d3 46 3c 97 14 ee bd
       0.094904676 0.073075704 0.012135381 -0.11625021
