apianet/models/VisionModel.pth (torch, 756181 bytes, 41 tensors)

conv1.0.weight f4 [32, 3, 3, 3]
000000 07 f9 f0 3d 3f fc 0b be db e0 22 bd a4 fc f6 3d
       0.11766248 -0.13670443 -0.03976522 0.12059906
000010 0f 09 34 3e 8f bc 50 3e ba 92 70 bd 2c df f0 bd
       0.1758158 0.2038443 -0.05873368 -0.11761317
000020 0e c3 0a bd 89 94 b7 bc da 7e 80 bd 4c 7c 70 3d
       -0.033877425 -0.022409694 -0.06274195 0.05871229
000030 2f bd 2a bd e1 29 06 3d 15 31 c7 3c 7a 21 3b 3d
       -0.041684326 0.032754783 0.024315396 0.045686223
000040 5f 0e 34 bd fc b5 e0 3d 32 b7 ef 3c 58 c6 59 be
       -0.043959018 0.10972211 0.029262159 -0.21267068
000050 0a 47 80 3d 0e 93 a8 bd d4 e0 62 be 10 a0 2a 3e
       0.062635496 -0.082311735 -0.22156078 0.16662621
000060 1b a0 a0 3d 18 33 bf bd ad 10 53 bc 07 b4 2b be
       0.07843038 -0.09335917 -0.012882394 -0.16767894
000070 2b d7 28 3e 46 e9 7d bd db 52 be bc 43 16 2f be
       0.1648833 -0.061990045 -0.023232868 -0.17098336
000080 d3 2a bc 3d 38 d3 27 3d 77 d0 36 bd 40 c7 78 3c
       0.091878556 0.04097292 -0.0446324 0.015184224
000090 41 bc 6e 3c 6b db 43 3c 4a 39 09 3d b2 9c 62 3e
       0.01457125 0.011954169 0.0335019 0.22130087
0000a0 e0 06 96 3d ee cb 5a 3e e2 cf 52 3d d7 bd ac 3d
       0.0732553 0.21366856 0.051467784 0.084346466
0000b0 48 e0 f3 bd 8e 16 be bd 9c 38 c0 bd fa 6f 07 be
       -0.11908013 -0.09281646 -0.093857974 -0.1322631
0000c0 5c 97 fa bd 88 76 76 3c 6d 84 34 bd d7 87 0f be
       -0.12235901 0.0150429085 -0.044071604 -0.14016663
0000d0 94 1b e3 3a ed 71 66 be b8 c8 df bd d3 ec 4f 3d
       0.0017326945 -0.22504397 -0.10926956 0.050762963
0000e0 65 58 01 3e b7 fe 7e bd 69 31 49 be 94 13 f3 3c
       0.12631376 -0.062254634 -0.19647755 0.029672422
0000f0 7b 11 ca 3d ba 9d 26 3e 6e d5 02 3d ef 88 e7 3d
       0.098666154 0.16271105 0.031941824 0.11305415
000100 5d fe fa bd 32 5c b7 bd 56 f6 93 3d 86 6a 2a 3e
       -0.12255547 -0.08953132 0.07224719 0.16642198
000110 97 a2 0e 3e 84 84 ed 3d 39 59 a0 bd 39 8b 2b 3e
       0.1392921 0.11597541 -0.07829518 0.16752328
000120 dc 98 ac 3d ed 34 10 bd 41 f2 e3 bd 66 79 db bd
       0.08427593 -0.035206724 -0.11130191 -0.10716514
000130 51 ee d3 bd 3c 53 56 be 3d 89 c0 3d 97 20 9a bd
       -0.103481896 -0.20930189 0.09401176 -0.07525747
000140 f2 05 93 bd 86 39 58 bd dd 94 20 3e 2c da 1f be
       -0.07178868 -0.052789234 0.15681787 -0.1561057
000150 85 34 34 be f4 0a d8 3d ac 8c f4 bd 71 40 ba 3d
       -0.1759816 0.10548964 -0.119408935 0.090943225
000160 bc 90 c6 bd 8c 95 22 3e 38 6b 0b be 79 35 a0 3b
       -0.09695575 0.1587736 -0.1361512 0.004889187
000170 aa 0a 8a 3d 27 87 27 be f2 89 29 3e 49 eb ce 3d
       0.06740315 -0.1636015 0.16556528 0.10103471
000180 1d 04 82 bd 48 97 50 be 77 6a 47 be ba bb e1 bc
       -0.06348441 -0.20370209 -0.19474207 -0.027555335
000190 a1 2d 5b 3e 0e 71 12 3d 57 f4 9a 3d 1a 11 91 3c
       0.21404125 0.03575235 0.075661354 0.01770835
0001a0 a9 a4 01 bd ed fa e9 bd c3 6d e6 3d e6 06 df 3d
       -0.031651173 -0.114248134 0.11251404 0.10889988
0001b0 23 1a 5c 3e 27 5e c0 3d 89 53 17 bd 1f 22 f8 3d
       0.21494345 0.09392958 -0.0369449 0.12115883
0001c0 69 18 22 3e ae 46 88 3d b8 bd 4d 3e 05 ab 7b bd
       0.15829624 0.06654106 0.20091903 -0.061442394
0001d0 17 d9 22 3e b8 c5 a4 3c b8 0f 0f 3d 2c c4 ad bd
       0.15903126 0.02011381 0.0349271 -0.084846824
0001e0 f8 a4 11 3e ef d4 47 be 00 ef 5a be 0e 85 25 be
       0.14223087 -0.19514821 -0.21380234 -0.16164038
0001f0 cf 78 e5 bc 5a 8a 49 3d ee 96 0e 3e 7c f7 0d bd
       -0.028011708 0.049204208 0.13924763 -0.034659848
000200 a7 a7 76 3d 40 5f 1d 3e 42 c1 76 bd 3a 65 87 bd
       0.06021848 0.15368366 -0.0602429 -0.06611104
000210 54 f6 0c be 70 79 41 be bc 32 45 3c 76 b1 43 be
       -0.13765842 -0.18893981 0.012036022 -0.19110665
000220 c6 35 40 bd ac c0 1d 3e a1 0f 29 3e aa 32 1c be
       -0.046926282 0.1540553 0.16509868 -0.15253702
000230 c5 46 c8 bd a1 4c df bd 2e 93 7c bd 40 b1 7c 3d
       -0.09779123 -0.10903288 -0.0616638 0.061692476
000240 ce c9 09 3e b1 ec 49 3e 40 93 d4 3b 56 e5 df 3a
       0.13455889 0.19719197 0.00648728 0.0017081897
000250 e5 f1 f7 3d 5f 38 88 3d e2 53 6c 3e ff 24 05 be
       0.121066846 0.06651377 0.23078874 -0.13002394
000260 6e e9 39 3d 8c e1 0f 3e 94 22 1d bd 21 ff 8d 3d
       0.04538863 0.14050883 -0.038363054 0.069334276
000270 a1 df e9 bd de c3 4d be 69 17 cc bd 45 3e 00 be
       -0.11419607 -0.20094249 -0.09965403 -0.12523754
000280 8e 07 cc 3d dd e8 46 be ff 1c 42 3e 2c 64 94 bd
       0.099623784 -0.19424768 0.18956374 -0.07245669
000290 60 86 c3 bd 11 93 95 bd 87 9a c8 3d 4b 5c 07 be
       -0.09547114 -0.07303441 0.09795099 -0.132188
0002a0 b5 9e ca 3a 62 e9 5a be 74 a6 47 be 7e 6e 31 3e
       0.0015458675 -0.21378091 -0.1949709 0.17327306
0002b0 41 50 26 3e e6 07 86 bd 9f 69 74 3d 91 27 0f 3e
       0.16241552 -0.06544475 0.05967104 0.13979937
0002c0 0d 44 d0 bd 74 a8 9a 3d 69 e7 6b bd 3a 83 a2 3c
       -0.1016923 0.07551661 -0.057593737 0.019837964
0002d0 e0 8f bf 3c 68 37 ac 3d 09 ec 11 bd dd 38 2c 3c
       0.023384035 0.084090054 -0.03562549 0.010511604
0002e0 ce 33 c2 3d 92 ca 66 bc cb 66 4b 3e 8f a9 dc 3b
       0.09482537 -0.014086382 0.19863431 0.00673408
0002f0 d6 08 86 3d 1a 30 1f 3d a9 87 47 3e fd 24 ed bd
       0.06544654 0.038864233 0.19485344 -0.115793206
000300 88 5e 84 3d 0a 2b 3b 3e ff 5e 74 bc 74 7e a2 bb
       0.06463343 0.18278137 -0.014915227 -0.004958922
000310 a3 5f 35 3d 9d 5d 51 3d da 63 e3 3d bd 6c 0e be
       0.04428066 0.051114667 0.111030295 -0.13908668
000320 9e c8 85 be ff 97 86 bd 98 14 09 3d 9a c5 d4 bd
       -0.2612962 -0.0657196 0.033466905 -0.10389252
000330 bb 58 a3 bc 3c 6f 16 3e 43 35 8a bd 96 8f 87 be
       -0.01993977 0.1469087 -0.0674844 -0.26476735
000340 96 e1 c5 3d c3 5b 19 be 15 30 d5 bc 2d da 9f bd
       0.09662168 -0.1497641 -0.026023904 -0.078052856
000350 b0 6c 8a be a3 a1 ed 3d bd 2f 04 be c4 b3 8c bc
       -0.27036047 0.116030954 -0.12908836 -0.017175563
000360 86 ee 75 be 8c ac 06 3e 04 28 8a 3b 3a f5 33 bc
       -0.2401677 0.13151759 0.004216196 -0.01098376
000370 94 13 6e bd 5b 80 77 bd 66 6d 66 bd cc 9b ec 3d
       -0.05812414 -0.060425144 -0.056256674 0.115531534
000380 60 44 18 be 5e 92 f8 3d bb 33 25 3e e6 b5 52 bd
       -0.14869833 0.12137292 0.16133015 -0.051443003
000390 b5 a7 12 3e de 21 cf 3d d6 e6 16 be 34 e8 33 bb
       0.14321788 0.101138815 -0.14736494 -0.0027451636
0003a0 28 48 67 3d 87 c1 44 3e c6 7f 6e be 22 60 a6 bd
       0.056465298 0.1921445 -0.23290929 -0.08123805
0003b0 c3 cf 70 3d 84 70 96 3d f7 29 28 bd 14 15 8b bc
       0.058791887 0.073456794 -0.041055646 -0.016977824
0003c0 98 57 dd bd 61 bd 2e bd 0a f2 64 bd 08 a4 18 bc
       -0.10807723 -0.042661075 -0.05589489 -0.009316452
0003d0 d3 f7 ca 3a 27 ed 46 3e e1 f3 9f bd e6 29 13 be
       0.0015485234 0.19426404 -0.07810188 -0.14371452
0003e0 33 f0 2b be 97 ab 7a bd 7a 87 2b be 83 89 54 be
       -0.16790847 -0.061198797 -0.16750899 -0.20755582
0003f0 99 34 c1 bd aa 2e e1 3d 44 95 75 bd 29 75 51 3e
       -0.0943386 0.109952286 -0.059956804 0.2045485

conv1.0.bias f4 [32]
000000 8f 62 9b 3d 7c 8c 87 3e 66 fe 8d 3d 2e d1 ae 3d
       0.07587158 0.2647437 0.06933288 0.085359916
000010 78 f0 81 bc 91 a7 d6 3b a7 50 a1 3d a5 fe 8e 3e
       -0.015861735 0.006550737 0.07876711 0.27928653
000020 63 fd 30 3e 38 11 11 3e b3 d4 bf bc d6 fe e3 3d
       0.1728416 0.14166725 -0.023416853 0.111325905
000030 36 70 05 be e6 df 50 bd ef fe ce 3d f9 49 f6 bd
       -0.13031086 -0.050994776 0.101072185 -0.12025828
000040 6a ee 2d 3e 34 5d 34 3e ee d3 0d 3b 48 9f 01 be
       0.16985479 0.17613679 0.0021641213 -0.12658417
000050 4a 05 1f be 64 b9 b9 bc f3 67 0d 3e 36 d1 75 bd
       -0.15529361 -0.022671409 0.13809185 -0.060013972
000060 7f 87 38 3e c9 e2 4d 3e ac c1 61 3e 97 7f f0 3d
       0.18020438 0.20106043 0.22046536 0.11743086
000070 d8 27 2a 3e b3 53 55 3e bc 44 00 3e e0 8c 1c 3e
       0.16616762 0.2083271 0.1252622 0.15288115

conv2.0.weight f4 [64, 32, 3, 3]
000000 1c d1 15 bd ca 53 04 3d 64 e8 6e bd 69 be 31 3d
       -0.036576375 0.03230647 -0.058327094 0.04339448
000010 14 b4 3a bb 83 ae 96 3b d7 6e 5e bd 43 a8 69 bd
       -0.0028488683 0.00459844 -0.054304924 -0.057045233
000020 d3 db 94 3c 47 65 30 3e 9f 27 23 3e 29 52 f7 3d
       0.018171227 0.17226134 0.15933083 0.12076218
000030 22 28 b7 3d e2 5e 1d 3e fa 65 0d 3e 3d b6 e7 3d
       0.089432016 0.15368226 0.13808432 0.11314056
000040 29 60 01 3e 5f b0 0b 3e 6e ba 4d 3d d2 99 47 3c
       0.12634338 0.13641499 0.05022662 0.01218267
000050 69 44 c7 3d 04 36 8c 3d 6c e6 51 3d 1b 2c 87 3d
       0.09729845 0.0684624 0.051245138 0.06600209
000060 12 53 e1 3d 03 7d 16 3d 9a fe 26 3c f2 46 63 bd
       0.110021725 0.036740314 0.010192538 -0.05548758
000070 f8 6e 8e bd c8 99 50 bc 8f 52 de bd dd 4a ee bd
       -0.06954759 -0.012731977 -0.108555906 -0.11635373
000080 35 2e e2 bd 47 0d 8a bd 8d ce 8f bd 21 18 a6 bc
       -0.110439695 -0.06740814 -0.07021818 -0.020275177
000090 e4 63 3e bd 64 f8 fe bd ef 2b f8 bd 8d ac 4a bd
       -0.046481982 -0.124497205 -0.12117755 -0.049480963
0000a0 e4 87 2b bd 6d fb d7 bd 2f 41 f1 bd 88 e3 03 be
       -0.041877642 -0.105460025 -0.11780011 -0.12879765
0000b0 6e 4c 81 bd e1 ac 4e 3e c6 af 47 3e c2 c0 e8 3d
       -0.06313406 0.20183136 0.19500646 0.11364891
0000c0 d2 9d 23 3e 92 35 bf 3d 97 f7 da 3d d5 45 b5 3d
       0.15978172 0.093363896 0.10691755 0.0885121
0000d0 89 73 d0 3d 8a 8f 16 3e 25 a8 b7 3c f2 56 84 3d
       0.101782866 0.14703193 0.022419045 0.06461896
0000e0 40 3a e1 3c 0e f4 cb 3c 89 ed 2b 3d 33 8b db 3a
       0.027493596 0.024896648 0.041974578 0.0016749859
0000f0 bc 69 89 3d f3 82 a2 3c 44 48 94 3d b8 f1 16 bd
       0.0670962 0.019837832 0.07240346 -0.036851615
000100 5c 00 ea 3c d0 fa 9d 3c 66 bc 84 bd fe 9f 5e bc
       0.028564624 0.019284636 -0.06481247 -0.01358795
000110 df 43 c0 bd 92 69 b1 bd 11 f0 a2 3b ab da a4 bd
       -0.093879454 -0.08662714 0.004972466 -0.0804952
000120 50 e2 89 3d f4 62 7a 3d 90 79 25 3d 53 87 9a 3d
       0.06732619 0.061129525 0.040399134 0.07545342
000130 ac e1 89 3c f9 cc 44 3d 7a 33 af 39 01 1b 5b 3d
       0.016831242 0.04804704 0.00033416954 0.05349255
000140 87 0c c7 3d 5d a3 93 3e 44 5f 92 3e 7d 42 60 3e
       0.09719186 0.28835574 0.28588307 0.21900363
000150 3d d1 88 3e c5 fa 76 3e 7c 07 72 3e af 0b 68 3e
       0.26722136 0.24119098 0.23635668 0.22660707
000160 73 93 98 3e 2a e6 3a 3e 64 79 13 bd 25 9e 1d bd
       0.29799995 0.18251863 -0.03600444 -0.038480897
000170 60 41 68 bd 2d 3a 71 bc 87 90 ee bd 50 05 e2 bd
       -0.05670297 -0.014723343 -0.1164866 -0.110361695
000180 40 90 c0 bd e5 d9 28 bd c6 82 09 be 74 2a 9d bd
       -0.094025135 -0.041223425 -0.13428792 -0.07674113
000190 15 a8 a1 bd 63 50 bc bd f6 5a 90 bd 8f be 1e 3c
       -0.07893387 -0.0919502 -0.070485994 0.009688987
0001a0 1d c5 ac bd ee ac 7d bd 6f 5a d4 bd 1c 96 05 bc
       -0.08436034 -0.061932497 -0.10368811 -0.008153465
0001b0 de 74 69 bc f1 35 c3 bc 1e 7b fb 3c dd c9 4a 3c
       -0.014249055 -0.023829432 0.030698355 0.0123772295
0001c0 8c ef 0b 3c 6a b6 8c bc 75 b9 c7 bb b0 8c aa ba
       0.008540999 -0.017176826 -0.0060951062 -0.0013011899
0001d0 e5 8b 0a bd 77 9f 9a 3d 24 76 c5 3b 80 b4 c0 3d
       -0.03382482 0.07549947 0.0060260464 0.09409428
0001e0 7a 58 e2 3c ae 5f a7 3d 91 07 41 3d 07 1a 02 3c
       0.02763008 0.08172546 0.047126357 0.007940776
0001f0 3c ee 1f 3d 8e e0 d9 3d 81 db be bd 73 08 de bd
       0.039045557 0.106385335 -0.09319211 -0.10841455
000200 77 62 08 be 3b f5 b0 bd 53 12 90 bd a6 92 ae bd
       -0.13318811 -0.08640524 -0.07034745 -0.08524065
000210 b1 04 13 be 6f fe a1 bd e6 be 09 be 0a 2d 4b bd
       -0.14357258 -0.079098575 -0.13451728 -0.0496035
000220 66 e0 9b bd 1c 67 9a bd e6 e6 84 bd 4e ab da bd
       -0.0761116 -0.07539198 -0.06489353 -0.10677205
000230 a0 75 11 be db 97 e7 bd f7 be b9 bd 98 5a f4 bd
       -0.14205027 -0.11308261 -0.09069627 -0.11931342
000240 58 c2 3a bd 8a f9 73 bd a8 6e 68 bd ca e4 7a bd
       -0.045595497 -0.05956415 -0.056746155 -0.061253347
000250 fb 7c 96 bd 7d 9e 21 be 3f 27 e3 bd db 01 35 be
       -0.07348057 -0.15783115 -0.1109147 -0.17676489
000260 a9 f9 2f be 22 6e 9e bd 6f 7a ce bd 87 f6 2c bd
       -0.17185082 -0.0773585 -0.10081946 -0.042227294
000270 c4 1d 53 bd c7 42 f4 bd ca 49 15 bd a6 4f b1 bd
       -0.05154206 -0.11926799 -0.036447324 -0.0865777
000280 00 37 fd bd 4c 49 8c bd f8 4b 90 3d e2 e8 51 bc
       -0.12364006 -0.06849918 0.0704574 -0.012811871
000290 2a a9 b1 3d 9c 83 05 3d 4d c2 8f 3d 2a c3 95 3d
       0.086748436 0.032596216 0.07019482 0.07312615
0002a0 e8 21 a1 3d 05 b2 b4 3d 45 0a 81 3c 0d 36 b7 3c
       0.07867795 0.08823017 0.015751967 0.02236464
0002b0 ed ce 10 bd 00 8b 7a 3d 7f b9 71 3d 91 f6 3c bd
       -0.03535359 0.061167717 0.059014793 -0.04613358
0002c0 38 2d 12 bd cb 0d 83 3d 67 98 8e 3c e4 6d 7d bc
       -0.035687655 0.06399115 0.017406655 -0.0154680945
0002d0 f9 01 74 bd a7 8b f1 bd 37 a7 a0 bc 71 8c 63 bd
       -0.059572194 -0.11794215 -0.019610984 -0.055553857
0002e0 9d 8e d6 bd 5d fc d3 bd 82 63 f3 bb 6c be de 3a
       -0.1047642 -0.10350869 -0.0074276337 0.0016994006
0002f0 15 83 99 bd ee 9c 62 3e d2 ed 8d 3e c2 45 51 3e
       -0.07495705 0.22130176 0.27720505 0.20436767
000300 f4 50 92 3e 9a dd 4f 3e e4 3b 7d 3e 11 d4 9a 3e
       0.28577387 0.20299378 0.24729878 0.3023992
000310 ac 3b 8f 3e 16 74 5c 3e c9 b2 c9 ba 74 a2 ff 3c
       0.27975214 0.21528658 -0.0015388365 0.031205393
000320 32 43 84 3d b0 6a 6e 3d 1d 0d 47 3d 0b 06 5c 3d
       0.06458129 0.058207214 0.04859649 0.0537167
000330 a3 8b 27 3d c8 c6 44 3d b8 ae 9a 3d d0 16 e9 3d
       0.040904652 0.048041135 0.07552856 0.11381304
000340 f4 8a 21 3e 1f 42 e4 3d c3 97 2e 3e 55 bb e4 3d
       0.15775663 0.11145424 0.1705008 0.11168543
000350 3c bb d8 3d bf da 05 3e 0d 89 76 3d b9 ac 7a 3d
       0.10582587 0.13071726 0.060189296 0.061199877
000360 ff 65 9d bd 17 8c ee bd 66 60 95 bd 78 5a e6 bd
       -0.0768547 -0.11647814 -0.07293777 -0.11247724
000370 14 7b 88 bd 1c bb 75 bd ae 4d cc bd 43 b4 18 be
       -0.066641 -0.059992895 -0.09975754 -0.14912514
000380 78 48 e1 bd 4c 3b 58 bd 35 96 50 bd 81 9e 06 3c
       -0.110001504 -0.052790925 -0.0509245 0.008216501
000390 e9 09 87 bd 03 a9 9b bc f2 b9 ba bd 6b 79 c4 bd
       -0.06593687 -0.01900149 -0.091174975 -0.09593471
0003a0 f3 f0 9c bd 3f 95 cc bd 77 bf 21 3e 81 ff c5 3d
       -0.07663145 -0.09989404 0.15795694 0.09667874
0003b0 8f df 6a 3d bd 6b 00 3e 65 02 19 3e a0 45 17 3e
       0.05734211 0.12541099 0.1494232 0.14772654
0003c0 5d b0 fb 3d ba c6 28 3e 6d 29 a3 3d 51 08 fd 3d
       0.12289498 0.16482058 0.07966886 0.12355102
0003d0 23 2b d5 3d ed 88 a1 3d 7d 24 23 3e fb 67 32 3e
       0.10408618 0.07887445 0.15931888 0.17422478
0003e0 4c e4 17 3e 7e 7e 19 3e 20 6c ff 3d 42 0a 2a 3e
       0.14833182 0.14989659 0.12471795 0.16605476
0003f0 3f b3 45 3c 65 80 c2 3d 4f d6 d9 3d e6 6e 9a 3d
       0.012066661 0.094971456 0.10636579 0.075406834

conv2.0.bias f4 [64]
000000 b3 30 1e 3d 0e ac 35 bd 0d 38 3b 3d 73 db e8 bc
       0.038620662 -0.044353537 0.04570775 -0.028424954
000010 78 da 04 3d 3d 9a 89 3d 32 04 4f bd 3f c4 df bc
       0.03243491 0.06718872 -0.05054111 -0.027315257
000020 ab 3f 82 3d da c2 45 bd 7f 43 93 bb 72 5e 91 3c
       0.063598 -0.048281528 -0.00449413 0.01774523
000030 d3 08 84 bd 74 a0 96 bc 4c 28 48 3d 09 3f cd 3c
       -0.064469956 -0.018387057 0.048866555 0.025054472
000040 7b 9e 55 3d 3b 2c 94 3d cc b0 7b bb 7f 0a 46 3d
       0.052153092 0.07234999 -0.003840494 0.048349854
000050 87 43 1e 3d 68 a5 d9 3c 80 b8 0e bd 10 0d ee bc
       0.038638618 0.02656813 -0.03484392 -0.029058963
000060 9b 6b b6 3c c0 0b 4f 3c 60 b1 a5 3c 25 b7 5c 3d
       0.022268107 0.012637079 0.02022618 0.053885598
000070 10 16 27 bd 7e bc 1c bd e8 aa 44 bd 0b fb 0f 3d
       -0.040792525 -0.038265698 -0.04801455 0.035151523
000080 e2 ec d3 3c a0 c3 50 3d 2f 9d 22 bd 21 77 34 3c
       0.02586979 0.050967813 -0.039700683 0.011014731
000090 fe 6a bf 3c 80 89 4d 3d 11 77 2a 3b dd d2 13 3d
       0.023366448 0.05017996 0.002601091 0.036089767
0000a0 7c 20 00 3d 02 c4 33 3d ba 93 3c 3c ba 1a 1a 3c
       0.03128098 0.0438881 0.01150983 0.009405786
0000b0 69 18 47 3d 2f 51 33 3c 34 7f 64 bd d0 ca 10 ba
       0.048607264 0.010944649 -0.055785373 -0.00055233855
0000c0 01 9b 0e bc c1 18 ed bc 2a ad 90 3c 93 45 ef bc
       -0.008703948 -0.028942468 0.017660696 -0.02920798
0000d0 ca 74 78 3d 8f 0d 81 3d ee b9 9b bc 5e a4 08 bc
       0.060658254 0.06301414 -0.019009557 -0.008339969
0000e0 ed cb 1e 3c f8 71 6c bd 34 b3 bf 3c 53 50 62 bd
       0.009692174 -0.057725877 0.02340088 -0.055252384
0000f0 fa cc a8 3d d4 77 37 3d 8b de 01 bc 0b 17 86 bb
       0.08242221 0.04479201 -0.007926594 -0.0040921024

color_head.2.weight f4 [3, 64]
000000 4c ce ad be aa 37 20 bd a8 83 5e be b1 23 08 3e
       -0.33946455 -0.039115585 -0.2172991 0.13294865
000010 e7 b2 14 be 91 6e 64 3e fa 6b de bd 9c 31 3f bd
       -0.14521371 0.22307803 -0.10860439 -0.04667817
000020 31 79 97 3b fc 21 00 bc 44 3d 3c be 03 72 78 3d
       0.0046226014 -0.0078206025 -0.18382746 0.060655605
000030 f0 0b b7 3d cd de 8a bd b3 a7 87 3e 19 81 a2 be
       0.08937824 -0.06780777 0.26495132 -0.3173912
000040 53 8d c4 3c 8f b6 bb 3d 16 cd 57 3e 9b 5d cd 3d
       0.02399317 0.0916568 0.21074328 0.100276195
000050 cc 22 21 3e 74 24 1b 3e 10 3e 88 be 8a 54 88 bd
       0.1573593 0.15150625 -0.2660985 -0.066567495
000060 21 db 49 3d bf c0 f2 be e6 33 27 3e 84 f4 6d bc
       0.049281243 -0.4741268 0.16328391 -0.014523629
000070 0f d7 91 be 34 c6 82 3e 37 fb ac be 61 f3 70 be
       -0.2848439 0.25541842 -0.33785412 -0.23530342
000080 0b e0 18 be 69 73 39 3b b1 59 d0 bd c9 36 09 3e
       -0.14929216 0.002829755 -0.10173357 0.13399805
000090 f4 28 5c be 6c 6c 47 be 94 6a 95 3d 30 1d ae bc
       -0.21499997 -0.19474953 0.07295719 -0.021254152
0000a0 c7 90 1c 3d 54 ac 80 bd 85 22 a2 be ce e0 67 3f
       0.038224008 -0.06282869 -0.3166696 0.905774
0000b0 c2 eb 91 3d e8 cc 7b 3d 50 3f e7 be dc af 57 3b
       0.07125045 0.06147471 -0.4516549 0.0032911217
0000c0 bc ac 91 bd 8c 1a a6 bc 47 fe 28 be 15 ef 1c 3d
       -0.071130246 -0.02027633 -0.16503249 0.038313944
0000d0 95 6b 93 bd 2c 86 23 3e 6d b2 a1 bc 9b 79 c1 be
       -0.07198254 0.15969151 -0.0197384 -0.3778809
0000e0 2f 81 78 be 80 63 85 be ce 21 23 be 20 07 2d be
       -0.2426803 -0.26052475 -0.15930864 -0.16897249
0000f0 15 0f 28 3e cd 88 92 bc 2e b5 50 3e c6 7b 93 be
       0.16412003 -0.017887497 0.20381615 -0.2880537
000100 b0 a3 bc 3e 6f 05 dd 3d f5 9d c0 bc 5a e5 b7 bd
       0.36843634 0.10792052 -0.02351282 -0.08979292
000110 d0 6f cb bd 89 c6 07 be f5 48 8c bb 27 6b c3 3d
       -0.09933436 -0.13259329 -0.004281158 0.09541922
000120 87 cd 73 3e 38 07 56 be 8e 4c 30 3e fd fd 97 3d
       0.23808871 -0.20901191 0.17216703 0.07421491
000130 e3 25 93 bd f4 46 57 3c 08 71 d3 bd ec ea 27 3e
       -0.07184961 0.013139475 -0.103242934 0.1639821
000140 51 b2 6b 3e 6f 63 c5 bc 2b 8c 32 be 42 5f 9a 3d
       0.23017241 -0.024095265 -0.17436282 0.075377
000150 ad 78 58 be 41 f8 3b be a1 d9 1b be ab c6 02 3c
       -0.21139784 -0.1835642 -0.15219738 0.007981936
000160 0b 6f d9 3d ac 9e 63 3e f9 c7 97 bd 17 73 1c 3e
       0.10616883 0.22228497 -0.07411189 0.15278278
000170 5e 41 d8 3d 9d 92 96 bd ad a5 d8 3d 94 78 c6 3e
       0.10559343 -0.07352183 0.10578475 0.3876387
000180 a3 82 1d bc 2e 09 67 3e 9c 0d 30 be 1a f5 7e be
       -0.009613666 0.22562096 -0.17192692 -0.24898186
000190 95 be 5d be fe dc a1 be 58 ff cd 3d f9 61 90 3e
       -0.21654733 -0.31613916 0.100584686 0.28199747
0001a0 be ad 8a bb 56 b5 91 be 6e 38 30 be 20 77 4a bf
       -0.0042321375 -0.2845866 -0.17209026 -0.7908802
0001b0 4b 39 bc bd 17 4a bd bd 47 e9 9f 3e 1d 90 37 bd
       -0.09190615 -0.09242647 0.31232664 -0.04481517
0001c0 be b4 4a 3e e1 2e a2 3d 55 c7 82 3e 1c fb 44 be
       0.1979551 0.07919098 0.25542703 -0.19236416
0001d0 7b 8b c2 be 91 fc 34 be 0a a8 bc 3d 11 c8 d8 bd
       -0.3799704 -0.17674471 0.092117384 -0.10585035
0001e0 2e cc 0f 3e 12 b9 56 3e 77 b8 4d be f4 0c 78 3e
       0.14042732 0.20969036 -0.20089899 0.24223691
0001f0 ac 45 2b be 4e e0 2c 3e db 9b 17 be e9 c8 e9 3e
       -0.16725796 0.1688244 -0.14805548 0.45661095
000200 b3 83 57 be ee 95 9a bd 60 38 5d 3e 1a 55 eb bd
       -0.21046333 -0.07548128 0.21603537 -0.11490841
000210 04 ec 38 3e e4 31 24 be b7 0d 02 bd ff 8b 7d 3d
       0.18058783 -0.16034657 -0.03175136 0.06190109
000220 03 a8 a3 be 4c e3 b5 3e a2 c5 a0 3d 39 22 95 bd
       -0.3196412 0.35524976 0.078501955 -0.07281918
000230 6f 55 d6 3d 2e 02 e2 3d 8d f3 3a be 95 96 11 3e
       0.10465514 0.11035572 -0.1825697 0.14217599
000240 de 45 9e be 3a f0 f4 bd 14 f1 0b be d7 9f 88 be
       -0.3091268 -0.11959882 -0.13666183 -0.26684448
000250 a9 93 a2 3d e4 5e 11 3e 22 4c af 3e 79 62 0c bd
       0.0793832 0.14196354 0.34237772 -0.0342736
000260 42 b7 e9 3d 23 65 8c 3d 30 16 56 be 54 31 24 be
       0.11411907 0.06855228 -0.20906901 -0.16034442
000270 f0 3e 97 3e d1 ad 91 bd 97 b0 1d 3d cb c6 9d be
       0.29540205 -0.07113231 0.038498487 -0.3081573
000280 4a d9 f5 3d 40 bf 98 be f4 31 96 3e 9a 2c d7 bd
       0.12004335 -0.29833412 0.29334986 -0.10506554
000290 4c 80 b3 3e ca 89 a3 3e 2c 8c 70 be ca d2 c0 be
       0.3505882 0.31941062 -0.23490971 -0.3766082
0002a0 d7 c2 96 bd 4d 41 9c 3e 7a 03 e3 3e e5 c6 26 bf
       -0.073613815 0.3051857 0.4433859 -0.6514724
0002b0 bf f0 e7 bd 29 94 e6 3c 7a 8a 3c be 64 42 ad 3d
       -0.113252155 0.02814682 -0.184122 0.08459929
0002c0 74 78 9a be e2 66 89 be a6 b3 bc be 80 c4 15 3e
       -0.30170023 -0.26836306 -0.3685581 0.1462574
0002d0 d1 00 34 3e 49 3e 0a 3e e1 00 22 3d d4 d1 9c 3e
       0.17578436 0.13500322 0.03955162 0.30628836
0002e0 18 09 fc 3d 48 30 d8 3d 21 40 95 3e 91 53 82 be
       0.12306422 0.10556084 0.2915049 -0.2545438
0002f0 f8 fd 04 3e 45 ae ac be b2 47 1a be 1f 75 01 be
       0.12987506 -0.33726707 -0.15066412 -0.12642334

color_head.2.bias f4 [3]
000000 b9 ba d4 bd 4d 4d a8 bd 9a b7 97 3c
       -0.10387177 -0.08217869 0.018520165

edge_head.0.weight f4 [64, 96, 3, 3]
000000 cc 36 cc 3c a3 78 7f bc 5a 72 51 bb a6 b1 35 3c
       0.024928473 -0.015592727 -0.0031959028 0.011089718
000010 48 ef e0 bc 08 fc 2c bc cd 33 ab bc 16 63 8e bc
       -0.027457848 -0.010558136 -0.020898724 -0.017381232
000020 47 e4 0c bd da 2d a1 3c 1f 60 ce bc 31 92 4e bc
       -0.03439739 0.019675184 -0.025192318 -0.012608097
000030 03 6c 1d bd 72 69 28 bd 64 a1 9a 3a e6 51 01 bc
       -0.038433086 -0.041116185 0.0011797366 -0.007893061
000040 94 7c 8d bc d8 11 10 3c f1 ce d9 39 ae d0 26 bd
       -0.017271318 0.008793317 0.0004154365 -0.040726356
000050 e7 f0 79 bc 31 9a 2f bc 60 57 1d bd 97 78 c0 bc
       -0.0152551895 -0.010717914 -0.038413405 -0.023495002
000060 2f 04 87 3a 27 4f 60 3b 4b ca 85 3c aa 39 0d bb
       0.001030093 0.0034226866 0.016331812 -0.0021549263
000070 91 59 84 3c be b8 a0 3c d0 27 58 bc 7f ee 0d 3c
       0.01615599 0.019619342 -0.013193086 0.008662819
000080 cc f2 02 bb d6 b3 c0 3c ab 1f d5 3c 72 34 0b 3d
       -0.0019981144 0.023523252 0.026016077 0.033985563
000090 6c ff e4 3c a4 98 b9 3c e0 70 9f bc 44 f7 9d 3c
       0.027953826 0.022655793 -0.019463003 0.019282945
0000a0 20 81 6f bc 05 ec f0 3b b9 31 b3 bb d6 37 0b bd
       -0.014618188 0.0073523545 -0.005468574 -0.033988796
0000b0 76 8a 1c bc 73 17 51 3b df 3b c5 3c ff 8f 9f bc
       -0.009554496 0.0031904846 0.0240764 -0.019477842
0000c0 03 49 41 bc 7f 1e 49 3c 65 c8 00 bd e9 91 0e bb
       -0.0117971925 0.012275337 -0.03144111 -0.002175445
0000d0 cc df 9e 3b cb 10 cf bc 8a 7e d9 bc 67 94 84 bb
       0.004848456 -0.025276562 -0.026549596 -0.0040460113
0000e0 c4 dd 0b 3d a9 f4 ea bc 19 57 28 bd db b3 22 3d
       0.03414704 -0.028681116 -0.041098688 0.039722305
0000f0 d4 20 d0 3b e2 fe 01 bd e4 2d 8b bc 73 50 d7 3c
       0.0063515697 -0.031737216 -0.016989656 0.026283478
000100 68 e7 b5 bc e1 5c 07 3d 49 e8 fd bc 24 1a 97 3c
       -0.02220507 0.03304756 -0.030994551 0.018445082
000110 7a 95 bc 3c cd ed cc 39 83 e0 42 bb ca ea 90 3c
       0.023020495 0.00039087087 -0.002973587 0.017690081
000120 3f 14 86 3b aa eb 01 bc 65 9f 9f bc 29 4a 9c bc
       0.004091769 -0.007929722 -0.019485185 -0.019078331
000130 f7 35 e3 3c 09 ea 8a 3b fe c0 69 3b 42 a5 d2 3a
       0.027735693 0.004239325 0.003566801 0.0016070979
000140 15 bc 61 3c d2 c1 10 bd a4 98 0f 3d 62 54 bb 3c
       0.013777752 -0.03534109 0.03505768 0.022867385
000150 db 1d 10 bd 4f 9a f2 bc b4 bb f0 bc 9e 04 95 3c
       -0.035184722 -0.029614596 -0.029386379 0.018190678
000160 b4 37 b3 3c 3a 2a c3 bc 06 26 cd 3a 77 57 ac 3c
       0.021877147 -0.023823846 0.0015651591 0.0210378
000170 c6 c9 95 3c 99 5c b0 3c 0e be 57 3a 23 95 dd 3c
       0.01828469 0.021528529 0.00082299195 0.027048653
000180 0e a0 41 bc 4e 4a e8 3b 6b 50 cb 3c a2 73 a5 3c
       -0.011817945 0.007088936 0.02481862 0.02019674
000190 06 50 14 3c 68 b1 b9 3c 1f 0b 96 bc e0 c6 ab bc
       0.009052282 0.022667602 -0.01831585 -0.020968854
0001a0 84 87 05 bd 51 f9 c2 bc 73 53 84 3c ee da 55 3b
       -0.03259994 -0.023800524 0.016153073 0.0032631713
0001b0 95 19 64 3c b7 15 be bc bb 57 03 bd 09 11 7e 3c
       0.013922115 -0.023203714 -0.03206609 0.015506991
0001c0 37 05 11 bd 0f 32 c7 3c a0 ca d6 bc 03 78 ca bc
       -0.035405364 0.024315862 -0.026219666 -0.02471543
0001d0 1b 89 b3 bc e7 53 f4 3b 9a 29 d2 bc 8a ad 30 ba
       -0.021915963 0.007456291 -0.025654603 -0.00067397265
0001e0 8a fa 6e bc bc 8d f1 b9 29 6f 02 bd c1 ff ac bc
       -0.0145861 -0.00046072702 -0.03184429 -0.021118047
0001f0 35 4c 8b 3c a9 c4 f5 3c 04 29 c4 3c 39 2d 81 3b
       0.017004112 0.030001001 0.023945339 0.0039421585
000200 ef 78 ad bc de 8d f0 bc ba 30 dd 3c 06 67 70 bb
       -0.02117583 -0.029364523 0.027000774 -0.00366825
000210 9c c3 87 3c 9d 9c a1 bc 0c 31 89 3c 19 f1 72 3b
       0.016572766 -0.019728 0.01674702 0.0037069975
000220 bc 6e 98 bc 03 d6 42 bc 5c 00 4e bd 5e 11 a5 bc
       -0.01860749 -0.011891845 -0.05029331 -0.020149883
000230 8f b5 a6 bc d7 53 0d bd 77 33 43 3c 72 21 3f bb
       -0.020350246 -0.034503784 0.011914126 -0.0029164222
000240 a5 f8 8e bb 04 5f bf bc 89 07 55 3c 8b 8c a7 3c
       -0.004363137 -0.023360737 0.013002285 0.020452758
000250 f6 8a 45 3c d2 4e 0e bd 08 72 c1 3c d2 b0 72 bc
       0.012057057 -0.034743138 0.023613945 -0.014812665
000260 a3 0b 9b 3c 21 80 ee 3c 17 55 78 bc 3d b7 b2 bc
       0.018926447 0.029113831 -0.015157006 -0.02181589
000270 ae a9 c8 3c 6c ab ee bc fe 13 bc 3c 0b a8 13 bd
       0.024494972 -0.029134475 0.022958752 -0.03604893
000280 69 2a 48 3c 97 72 18 3c dd 4c e8 3c ed 93 c4 bc
       0.012217143 0.009304664 0.028356964 -0.023996318
000290 b7 28 cf 3a cf 09 7f bc d2 fa 82 bc bd a0 61 3c
       0.0015804981 -0.015566303 -0.015988741 0.013771233
0002a0 27 7d a2 3c a1 2b 92 bc 1c eb f7 bb ca 6e e0 b9
       0.019835068 -0.01784307 -0.007565869 -0.00042807154
0002b0 97 94 7f 3c 71 19 ce 3c 7a 2b 95 bc 95 34 cf bb
       0.015599391 0.025158616 -0.018209208 -0.006323407
0002c0 4f bc 07 bd 6f 6e 55 bc bc 50 0b bd bb 1d 1b 3d
       -0.03313857 -0.013026818 -0.03401254 0.03787015
0002d0 3a 0d b6 bc 39 c6 6c 3c 14 65 09 bb 27 2f 0c bd
       -0.022223104 0.014451557 -0.0020964788 -0.034224655
0002e0 39 88 fd 3b 1d 25 3c 3c 31 7a d3 bc 65 07 bc bc
       0.0077371863 0.011483458 -0.025815101 -0.022952745
0002f0 27 58 aa bc ef 36 a9 bc ae d1 8d bc fe 6e 02 3d
       -0.020793987 -0.020656077 -0.017311897 0.03184413
000300 f8 11 93 3c 71 66 af bc f2 1b e3 3b ad dd a6 3c
       0.017952904 -0.021411153 0.0069308216 0.020369375
000310 11 96 50 3b bc cd 1e bc 3e 20 bf bc 6f 3c 1e bc
       0.0031827728 -0.009692606 -0.023330804 -0.009657963
000320 f9 64 2b bc a9 6a cc bc a2 7b d9 bc 30 42 08 bd
       -0.0104610855 -0.024953203 -0.02654821 -0.033266246
000330 17 e1 1e bd 3c d3 0c bd 5d ea 17 bd 04 f2 d5 bb
       -0.03878888 -0.034381136 -0.03708874 -0.0065290947
000340 2e cd 95 3b 0f 25 c1 3c b8 6a 4c 3c b8 e1 08 bd
       0.0045715785 0.023577241 0.012476616 -0.033418387
000350 74 6b d0 bb 9a a5 a1 3c 0b 71 73 bc 43 f8 16 3d
       -0.0063604657 0.019732285 -0.0148584945 0.036857855
000360 e6 aa 98 bc f4 c5 5c 3c a4 83 34 bc 69 02 32 bc
       -0.018636178 0.01347493 -0.011017714 -0.010864832
000370 bf fb c4 bc 7a da cf 3c 8d 8f ce 3c 0c c3 14 3c
       -0.024045823 0.025372732 0.025214935 0.009079706
000380 c8 08 f5 bc 90 bc b2 3c 60 6a de 3c 14 99 08 bd
       -0.029911414 0.02181843 0.027150333 -0.03334911
000390 d2 6a 0d bd 0a a9 2a bd 05 ba a5 bb 5d f4 2b bc
       -0.0345257 -0.041665114 -0.0050575756 -0.010495272
0003a0 e7 31 09 bd e3 e7 f2 bb fc 08 9d 3c 6e 7e cb 3c
       -0.033494856 -0.007412897 0.019169323 0.02484056
0003b0 eb 4b ff 3c aa a7 57 bc df ea f0 ba 52 1c 31 3d
       0.03116413 -0.013162533 -0.0018380544 0.0432399
0003c0 90 5a 71 bb f0 f9 9a 3c 01 41 99 3c e5 ee d6 3b
       -0.003682766 0.018918008 0.018707754 0.00655924
0003d0 31 13 21 bd a6 b2 8e b9 47 74 80 ba 33 53 d1 3c
       -0.039324943 -0.00027217454 -0.0009800278 0.025552368
0003e0 c7 b9 8c bc 29 b8 15 3c ad a7 98 3c 1e 4e e8 bc
       -0.01717843 0.0091381455 0.018634642 -0.028357562
0003f0 52 58 fe bc 8b f5 bc 3c 4c 49 64 3c 07 04 c4 ba
       -0.031047974 0.023066303 0.013933491 -0.0014954814

edge_head.0.bias f4 [64]
000000 39 a7 2b 3c 02 c8 1c ba 95 aa dd 3c ce ba 14 3e
       0.010476881 -0.0005980731 0.027058879 0.14524385
000010 5e 7d ab 3c ef b2 1a 3d b5 09 65 3d d1 f3 98 bc
       0.020933803 0.0377683 0.05591746 -0.018670948
000020 57 c1 34 bc ef 98 0e bd b1 cb 18 3d f5 ac 78 bc
       -0.011032424 -0.034813818 0.03730363 -0.015177955
000030 b9 01 0d 3d a4 fc b3 bb 75 f5 00 3c 76 44 a9 3c
       0.03442547 -0.0054927636 0.0078710215 0.020662528
000040 f4 84 07 3e 17 d9 b7 3c 80 da 50 3d d7 c5 9a 3d
       0.13234311 0.022442384 0.050989628 0.07557266
000050 c3 dd b4 3e 18 1e 05 bd db 93 05 3d 1e 35 15 bc
       0.3532544 -0.032499403 0.03261171 -0.009106902
000060 2d ce 67 3d af dd 0a bd 12 94 92 bb d1 c2 16 bd
       0.05659311 -0.03390282 -0.0044732178 -0.036806885
000070 71 7e c1 bb 9b 5b 43 3c 63 75 13 3d 0f dc 90 3d
       -0.0059049656 0.011923696 0.03600062 0.07073223
000080 30 1c 07 3d e4 7b aa bc 53 4c fa 3d 34 0e 5d ba
       0.032985866 -0.020811029 0.12221589 -0.00084325974
000090 3d bc cb 3c e7 35 36 3d 65 dd e5 bc c8 ae d3 3c
       0.024870032 0.044485 -0.02805967 0.025840178
0000a0 0d 65 35 3c fd 67 2f 3e 87 dc 0f bc 71 b9 bd bc
       0.011071456 0.17129512 -0.008780605 -0.023159714
0000b0 96 e0 ec bb 00 76 e4 3d 0f 12 df ba 0f 89 25 3d
       -0.007228921 0.11155319 -0.0017018932 0.040413912
0000c0 22 61 97 3c 4d c8 b4 bc 12 9b 2b bd 6f 90 e3 3c
       0.018478934 -0.022068167 -0.041895933 0.027778832
0000d0 bd 55 0f bd 6c 16 33 be 05 09 c7 bc 1e 74 5c 3c
       -0.034993876 -0.17489022 -0.024296293 0.013455419
0000e0 b7 a4 9b 3c e7 34 1d 3d 76 2c 05 3d 1a 53 83 3c
       0.01899944 0.03838053 0.032513104 0.016030837
0000f0 b2 ba b0 3b 84 bb c9 3c 54 04 85 3c 4e 8c 99 bc
       0.0053933496 0.024625547 0.016237415 -0.01874366

edge_head.2.weight f4 [64]
000000 21 8c 7d 3f d0 15 74 3f 36 7f 7e 3f 69 23 74 3f
       0.99041945 0.95345783 0.9941286 0.9536653
000010 83 e1 86 3f 47 3c 71 3f 23 af 70 3f c1 1a 7e 3f
       1.0537571 0.942326 0.9401724 0.99259573
000020 96 47 79 3f 7c 1a 70 3f cb 03 82 3f 58 05 7e 3f
       0.97374856 0.9379041 1.0157408 0.99226904
000030 70 ee 7e 3f 95 d5 78 3f 67 a5 64 3f 1d 8d 93 3f
       0.99582577 0.972009 0.89314884 1.1527439
000040 a4 8b 76 3f 22 ed 5c 3f aa af 82 3f 53 fe 79 3f
       0.96306825 0.86299336 1.0209858 0.9765369
000050 30 79 7a 3f 7d c4 7e 3f 57 cd 84 3f 7c 76 7e 3f
       0.9784117 0.9951857 1.0375165 0.9939954
000060 4d a5 68 3f 89 76 7e 3f e5 c3 7f 3f 72 76 7e 3f
       0.9087723 0.9939962 0.99908286 0.99399483
000070 67 81 92 3f 84 95 72 3f a4 b7 7b 3f 34 27 92 3f
       1.144574 0.9475939 0.9832709 1.1418214
000080 5f d4 77 3f 1b 12 6a 3f b8 a7 74 3f 78 62 7e 3f
       0.9680843 0.91433877 0.9556842 0.99369
000090 54 4e 7e 3f 19 e3 60 3f 70 7e 7e 3f 6b f9 79 3f
       0.9933827 0.87846524 0.9941168 0.97646207
0000a0 21 e4 73 3f b6 c2 7e 3f 71 76 7e 3f 4a cd 7c 3f
       0.9526997 0.99515855 0.9939948 0.98750746
0000b0 ce 25 72 3f 14 ac 88 3f bc 70 80 3f 19 43 88 3f
       0.94588935 1.0677514 1.0034404 1.0645477
0000c0 4a 97 5d 3f 6e c1 6b 3f f9 2a 7b 3f 89 ba 75 3f
       0.86558974 0.92092025 0.98112446 0.95987755
0000d0 ff ae 80 3f 0f c6 87 3f 16 63 7f 3f 9f 6a 8c 3f
       1.0053405 1.0607318 0.9976057 1.0970038
0000e0 95 ec 76 3f e1 92 6e 3f 67 50 6c 3f 1f 64 7f 3f
       0.96454746 0.9319287 0.92310184 0.9976215
0000f0 29 1b 74 3f 87 f2 66 3f 99 d7 7e 3f b3 75 7e 3f
       0.95353943 0.9021382 0.99547726 0.99398345

edge_head.2.bias f4 [64]
000000 1a 62 e2 bd db 0f 31 bd 00 f2 a2 3d a6 9f 0c bd
       -0.11053868 -0.04322801 0.07956314 -0.03433194
000010 1b 1b ca 3c cc e1 60 bd 38 20 62 bd 3d 59 cb bc
       0.024671128 -0.054902837 -0.055206507 -0.024822826
000020 c5 c8 bf 3d d3 82 b7 bd df 92 48 bd b1 e4 0a 3d
       0.093644656 -0.089604996 -0.048968192 0.033909503
000030 43 62 dc bd 5f 44 52 3d 32 3e 03 bc 0c eb 33 3d
       -0.107609294 0.051334735 -0.008010434 0.04392533
000040 c9 f7 0b 3e f0 3e ec 3c 7e 4e 1b bd ac 66 55 bc
       0.13668741 0.028838605 -0.037916653 -0.013024967
000050 81 dd f4 3d 64 8f 59 bd 8d 3e c1 3c 68 7f ec 3b
       0.11956311 -0.053115264 0.023589397 0.0072173364
000060 b4 da 20 3d d6 91 05 be 07 79 30 3d 9b f9 da 3a
       0.03927107 -0.13043913 0.04308417 0.0016706468
000070 bb fe 50 3d d1 40 72 bc 86 c0 bb 3b e6 70 3c bd
       0.05102418 -0.014785961 0.0057297377 -0.046006106
000080 82 65 76 3d e7 29 74 bb 3a 77 1f bc 18 7a a7 3c
       0.0601554 -0.003725642 -0.009733016 0.020443961
000090 59 fd ad 3d a2 91 03 3d cf 81 90 bd d2 b7 16 bc
       0.08495588 0.03212131 -0.07056009 -0.0091991
0000a0 44 c5 01 3d ea bf 96 3d b3 24 1c 3d f2 c1 7a bd
       0.031682268 0.073608235 0.038120937 -0.061220117
0000b0 4b 40 94 3d 74 6c a9 3d dd 1b dc 3d 5d e7 c5 3d
       0.072388254 0.08272639 0.10747502 0.0966327
0000c0 31 0f d9 3c aa d7 3d 3b 1a 1c fe bb e1 47 af bc
       0.026496502 0.0028967657 -0.007754815 -0.02139658
0000d0 3a 2c 07 bd 50 29 1e ba e0 5b 41 3e 11 49 96 3d
       -0.033001162 -0.0006033378 0.18882704 0.07338155
0000e0 21 b0 08 3c 97 23 ae bc 56 84 9a 3b ef 8a 0b 3d
       0.008342774 -0.021257205 0.0047154827 0.034068044
0000f0 eb 41 a2 3d 94 27 2f bc c3 1e 06 3c ce cf e5 3d
       0.07922729 -0.0106905885 0.008186045 0.11221276

edge_head.2.running_mean f4 [64]
000000 f0 2f 8f 11 de d4 0f 3f 2e 89 a4 3d 0a 2f d1 3f
       2.2590966e-28 0.56184185 0.080339774 1.634248
000010 39 44 39 3f 0f 8d 41 3c 36 40 e0 3c 04 00 00 00
       0.72369725 0.011813416 0.027374368 6e-45
000020 08 59 67 3d ea 65 5c 3c 8d c6 c0 3f 04 00 00 00
       0.05648139 0.013452033 1.5060593 6e-45
000030 23 fe 1b 24 be 36 9d 3f 3a cc a8 3d 27 0f 8f 3d
       3.382553e-17 1.2282331 0.08242078 0.06985312
000040 d1 54 73 3f ec 79 a1 3f 5d de 41 3e 57 da f4 3e
       0.95051295 1.2615333 0.18932481 0.4782283
000050 d2 a6 4f 3f 04 00 00 00 e8 80 82 3f 04 00 00 00
       0.8111392 6e-45 1.0195589 6e-45
000060 ea c5 f0 3e 04 00 00 00 04 00 00 00 04 00 00 00
       0.47025996 6e-45 6e-45 6e-45
000070 5e 24 db 3e 99 20 1b 3d 15 f1 0f 3f 12 88 87 3a
       0.42801183 0.037872884 0.56227237 0.0010340235
000080 a3 77 35 3e d3 ba ae 3c 5b eb 26 3f 04 00 00 00
       0.17721419 0.02132932 0.65202874 6e-45
000090 9e 9a 8f 27 73 10 97 3c 04 00 00 00 a2 a4 88 3e
       3.985811e-15 0.01844046 6e-45 0.26688105
0000a0 12 fc 12 3f 57 0a 4f 3f 04 00 00 00 20 4a 90 0b
       0.5741588 0.8087515 6e-45 5.5578313e-32
0000b0 51 03 80 3f ff 3c 0b 3f fd 16 00 00 52 e8 14 3f
       1.0001012 0.5438995 8.247e-42 0.5816699
0000c0 a0 bc 22 3f d2 0f 82 3f cb 7c 94 2e 7c b2 fe 3e
       0.6356907 1.0161078 6.7524285e-11 0.49745548
0000d0 04 00 00 00 b0 db 62 3f 04 00 00 00 9c b3 8f 3e
       6e-45 0.88616467 6e-45 0.2806672
0000e0 39 e5 40 3f 0a 90 20 3f 60 cb 8c 3f 28 13 2c 3f
       0.75349766 0.62719786 1.0999565 0.6721673
0000f0 19 5b 10 3f 2b 09 e9 3e 5c 98 53 3d 04 00 00 00
       0.56389004 0.45514807 0.051658973 6e-45

edge_head.2.running_var f4 [64]
000000 be 06 03 0e 7b 3e f6 3c d6 7a b0 3c 4d 45 c7 3d
       1.6150243e-30 0.03005909 0.021542948 0.09730015
000010 9a b5 c9 3c 6d 26 d0 3b 55 70 f6 3c 08 00 00 00
       0.024622727 0.006352237 0.030082861 1.1e-44
000020 cf 63 f3 3c cc 85 04 3c d5 ea d9 3d 08 00 00 00
       0.029710678 0.00808854 0.10640494 1.1e-44
000030 28 97 c8 20 f1 f9 cb 3d a2 02 75 3d 4c 98 46 3c
       3.3981345e-19 0.09959782 0.059816964 0.012121271
000040 ab 95 b2 3e a9 a4 da 3f e8 0c ce 3c 5a d9 15 3d
       0.34879813 1.70815 0.025152639 0.036584236
000050 c4 88 69 3d 08 00 00 00 c9 3a 30 3d 08 00 00 00
       0.057015195 1.1e-44 0.043024812 1.1e-44
000060 42 20 40 3d 08 00 00 00 08 00 00 00 08 00 00 00
       0.046905763 1.1e-44 1.1e-44 1.1e-44
000070 c3 6d 5a 3c 6e a8 f0 3b a8 c2 0d 3d 83 a7 88 39
       0.013331833 0.007344297 0.034609467 0.00026064747
000080 e4 19 37 3d 00 2d 93 3c a4 09 11 3d 08 00 00 00
       0.044702426 0.017965794 0.035409585 1.1e-44
000090 a5 ad b2 24 79 20 59 3c 08 00 00 00 58 42 ce 3c
       7.748936e-17 0.013252371 1.1e-44 0.02517812
0000a0 69 84 2e 3d ef 6e 45 3e 08 00 00 00 e9 50 39 0a
       0.042606745 0.19280599 1.1e-44 8.9226435e-33
0000b0 a5 cf 25 3f a2 ec c3 3c a2 00 00 00 f1 e2 c0 3c
       0.64769965 0.023916546 2.27e-43 0.023545714
0000c0 c7 1d c0 3d aa 57 f1 3e 23 bb ee 2d aa 2c 43 3d
       0.093806796 0.47137195 2.7140573e-11 0.047650017
0000d0 08 00 00 00 ab 29 be 3d 08 00 00 00 d9 60 03 3d
       1.1e-44 0.09285291 1.1e-44 0.032074783
0000e0 de 88 14 3d a8 b7 4f 3d 88 c3 18 3e 42 8f 05 3d
       0.03626334 0.050712258 0.14918339 0.032607324
0000f0 4b 73 a6 3d 59 82 df 3d 46 aa 06 3c 08 00 00 00
       0.08127459 0.10913534 0.008219307 1.1e-44

edge_head.3.weight f4 [32, 64, 3, 3]
000000 81 b9 fa 3c 6e 71 9e 3c d9 97 18 3d 0c b4 a2 3c
       0.030606033 0.019341197 0.03725419 0.019861244
000010 5f 22 1a 3d d2 a0 a0 39 02 0f c6 3c d6 40 3c bb
       0.037630435 0.000306374 0.024177078 -0.0028725169
000020 41 2a db 3c a6 71 00 3d df 56 5b bd 29 f1 1b bb
       0.026753547 0.031358384 -0.053549644 -0.0023794866
000030 f7 69 16 bc ac b5 fc 3c 1e a0 80 3d b1 7f 3f bd
       -0.009180537 0.030848347 0.0628054 -0.046752635
000040 bd 72 17 bc b6 76 54 3a 45 d4 84 bd 44 fb 97 bc
       -0.009243664 0.00081048475 -0.064858 -0.01855243
000050 aa 90 8b bc 94 00 c0 bc f4 e1 aa 3b 7f 8a ff bb
       -0.017036755 -0.023437776 0.005214924 -0.0077984924
000060 e2 77 12 bd 8a 39 66 bd a5 3f 5a bc 0f 77 83 3d
       -0.03575886 -0.056207217 -0.013320838 0.06419193
000070 5e 33 d0 bc 58 07 d1 bc 36 c3 7d bc 3c 11 01 bb
       -0.025415119 -0.025516197 -0.015488436 -0.001969411
000080 06 17 13 bd ae 63 ad 3c 6c f8 cb ba c9 fe 29 3d
       -0.03591063 0.021165695 -0.0015561706 0.041502748
000090 73 d2 77 3c d8 5c 8c bd 93 04 3a 3c 07 f9 71 bb
       0.015125859 -0.06853646 0.01135363 -0.0036922114
0000a0 7e 47 be 3d e4 de e6 bc 31 31 66 bd 20 99 f1 3b
       0.0929098 -0.028182454 -0.056199256 0.0073729903
0000b0 2d 5e 0d 3c 73 1c 4c 3d b0 69 26 38 76 a2 51 ba
       0.00862841 0.04983182 3.9675913e-05 -0.0007996926
0000c0 a0 74 4c 3d 44 9c 58 3c e3 02 b1 bc 00 8f f3 bc
       0.04991591 0.01322085 -0.021607822 -0.029731274
0000d0 8f 1f ea bb 22 8e ac 3a 26 bd 11 bc fa df 06 3c
       -0.0071448754 0.0013164917 -0.008895194 0.008232111
0000e0 1b 6c 01 3d 44 2c 53 3d 8b 35 9b bc 76 53 83 3d
       0.031597238 0.051555887 -0.01894643 0.06412403
0000f0 34 46 bd bb 20 08 42 bc 17 5a 87 bc 85 d0 41 3d
       -0.005776191 -0.011842757 -0.01652245 0.047318
000100 9b 5b a2 bc 3b 36 df 3b 81 09 d8 3c 84 b5 31 bc
       -0.019819072 0.0068118847 0.02637172 -0.010846499
000110 b5 36 39 3c a8 3a 3e 3d 9f 04 0c 3d a9 8b 0c bc
       0.011304547 0.046442658 0.034184095 -0.008578219
000120 45 37 b9 bc 34 46 4a bc e1 2a 48 bb 25 ff 82 bc
       -0.022609362 -0.012345839 -0.0030543136 -0.015990803
000130 b5 3a 8d ba 81 25 23 3c ae d7 36 bd df fa 7d bc
       -0.0010774942 0.009957672 -0.044639282 -0.015501707
000140 8a 01 91 bd f8 8e 36 bb a2 80 98 3c 2d 19 76 3d
       -0.07080372 -0.0027856212 0.018616024 0.060082603
000150 58 af e4 ba 9e ae f1 3c fd 61 0b bd 45 6b e1 bc
       -0.0017447276 0.02950221 -0.034028996 -0.02751697
000160 47 77 03 bb f4 27 17 3d 2f a5 c0 ba 37 b9 fb bc
       -0.0020060109 0.036903337 -0.0014697666 -0.030727966
000170 1b f7 92 3d dd fc e2 bb 10 b1 3c 3d 67 29 6d 3c
       0.07176038 -0.0069271163 0.046067297 0.014475203
000180 ac ac df ba 81 36 45 bd af 24 9e 3c dc 9e d1 bc
       -0.001706501 -0.048147682 0.019304601 -0.025588445
000190 fb c3 3e bc 7d 06 2f bd 9e 98 e6 3c c0 f9 cf bc
       -0.011643405 -0.042730797 0.028148945 -0.025387645
0001a0 76 05 6a ba ed 43 01 bd fe f8 1b 3b 33 ea bb 3c
       -0.00089272053 -0.03155892 0.0023799534 0.022938823
0001b0 d9 6f 9b 3c 20 36 6b bc 3d ad cf bb d8 1f 7f 3d
       0.018974232 -0.014356166 -0.0063377903 0.062286228
0001c0 a6 0c 47 bc 3c 17 2f 3c c8 89 6b bc 55 7e 41 3c
       -0.012149012 0.010686692 -0.014376111 0.011809905
0001d0 eb d0 37 bb 1b c2 00 bd 75 2b 94 3c 1a be a7 3c
       -0.0028048109 -0.031435113 0.018087128 0.02047639
0001e0 bd 0f 95 bb b2 8e 20 bc 47 41 0c 3d e7 5e 57 3d
       -0.0045489953 -0.009799646 0.03424194 0.05258074
0001f0 1f 45 69 bc b9 51 2e 3d 87 76 a0 bb 6d 30 14 bc
       -0.014237671 0.042558406 -0.004896942 -0.009044749
000200 ea 28 6f bc 74 31 1b 3c 11 6d 05 3b 60 da 8b bb
       -0.014597157 0.00947224 0.0020359198 -0.0042679757
000210 af 17 1e bd 65 f1 18 3d ba 9c 91 3c eb 94 8b bd
       -0.038596805 0.037339587 0.017774928 -0.06815513
000220 e6 f1 02 bd e3 a8 ab bc ae 3c 6e bd 45 db 86 bc
       -0.031968974 -0.020954555 -0.058163337 -0.016461978
000230 3e 65 17 3c 33 22 26 bd f0 1b 12 bd 5a b3 ea bc
       0.009240447 -0.04055996 -0.035671175 -0.028649975
000240 f6 8d 8a 3c 43 b6 fc 3c 03 d5 f8 3b 7e be da 3c
       0.016913395 0.030848628 0.0075937524 0.026702162
000250 f3 b8 5b bd 65 56 5d 3d 65 84 48 bd fd e9 70 bc
       -0.05364318 0.05403747 -0.048954386 -0.014704225
000260 df f4 a0 bc 05 5d af 3c 29 b2 23 bc 12 ba 27 bd
       -0.019648014 0.02140666 -0.009991207 -0.040948935
000270 e4 48 7e 3c 21 4e 15 3c e4 bd 90 bc 08 3c 9a bc
       0.015520308 0.009112866 -0.017668672 -0.018827453
000280 41 25 6e bc c6 15 df bc fd 12 ce 3c a7 2e ea bc
       -0.014535249 -0.027232062 0.025155539 -0.028586699
000290 c6 d6 c8 3c 0e a7 13 3d 7d 65 19 bd 11 00 29 bd
       0.024516474 0.036047988 -0.037450302 -0.04125983
0002a0 6b 41 ac bc 3e 7c a3 3d f0 84 2d bc c9 f5 c9 3b
       -0.021027287 0.07982682 -0.010590777 0.006163333
0002b0 b4 fa 16 3d ea a5 4c bd 64 53 cf bc b6 f5 01 bd
       0.036860183 -0.049962915 -0.025308318 -0.03172847
0002c0 ab f4 25 3d 89 fe 28 3d 92 ba 92 bd 88 0b db 3c
       0.040516537 0.04125837 -0.07164492 0.026738897
0002d0 b2 30 df bc 74 82 a9 3d 43 e2 b0 bc 43 30 2c 3b
       -0.0272449 0.08276835 -0.021592265 0.0026273883
0002e0 77 ee 2c 3c e3 25 58 bd 3e 0c a4 bc 44 92 5b 3b
       0.010554901 -0.052770507 -0.020025369 0.003350393
0002f0 0a e3 38 3c 9a cf 34 3d c8 12 35 3d 16 51 e5 3b
       0.011284599 0.044143297 0.044207364 0.0069981916
000300 72 11 fd 3c d8 00 b0 3c 9f 8b 7d ba 02 b8 09 3d
       0.030892108 0.021484777 -0.0009671989 0.03362275
000310 22 58 26 3c fe 76 24 3a 45 1a 0a bd 17 96 41 3d
       0.010152848 0.0006273835 -0.03371646 0.047262277
000320 57 75 7e bd be 95 a6 bc 3c 65 c6 3c 83 e4 4f 3d
       -0.062123623 -0.020335075 0.024218194 0.050755035
000330 40 2b 90 bd 37 d8 9f 3d b5 f7 48 bd bc 47 25 3d
       -0.07039499 0.078049116 -0.049064357 0.040351614
000340 44 be 07 bd e6 f6 92 bc 3e fa 30 bd 4b 5d 2b bc
       -0.033140436 -0.017939996 -0.0432074 -0.0104592545
000350 4e 5c 07 bb 9b 13 85 bc 2b 85 10 bd 14 0c 8b bb
       -0.0020654383 -0.0162447 -0.03528325 -0.004243383
000360 8b f7 46 bc e3 22 fb 3c 0d 41 72 bd 5d 74 42 3c
       -0.01214398 0.030656284 -0.05914407 0.0118685635
000370 a0 98 34 3c 8b 28 38 bd 51 c3 4d 3d 59 d4 1e 3c
       0.011022717 -0.04496054 0.050235096 0.009694182
000380 a2 2e 5e bd 04 9c fc 3c 3f 61 c6 bb 26 85 1f 3d
       -0.05424369 0.030836113 -0.006054073 0.03894534
000390 77 a9 ca 3c 8f 22 2b 3d 71 62 c2 3c ef e8 34 3c
       0.02473901 0.041781005 0.023728581 0.011041864
0003a0 92 d6 b6 3b 03 8d 18 3c d1 6c 9e 3c e9 59 be 3c
       0.005579778 0.009310964 0.019338997 0.023236232
0003b0 23 0d 90 3b b5 d5 b6 bb 32 bf 9e 3c 12 fc bf 3c
       0.0043960973 -0.005579675 0.019378278 0.023435626
0003c0 dc 8b 81 bc 30 b0 ef bc 95 3f 12 3d d0 02 b6 bb
       -0.01581376 -0.029258817 0.035705168 -0.0055545345
0003d0 c2 13 bc 3b 1a c9 83 bc 4e 50 d8 3c 8c e0 cc 3c
       0.00573966 -0.016087104 0.02640548 0.025009416
0003e0 67 2c 45 3c 7d bf b0 3c a4 b8 3d bd 19 aa 3f bd
       0.012034512 0.021575684 -0.046318665 -0.046793077
0003f0 8e 3c d1 bb b7 91 d3 bc 48 1f 7f 3b 09 d0 35 bd
       -0.0063853925 -0.025826318 0.0038928557 -0.04438785

edge_head.3.bias f4 [32]
000000 ad 0f b3 3c 91 c7 0a 3d bd 73 bf bd a0 8c dd bd
       0.02185806 0.033881728 -0.09348247 -0.10817838
000010 52 cf 72 3d 1c a3 f3 bb ae 26 bf 3c 77 ff 9a bd
       0.059279747 -0.0074352156 0.023333874 -0.07568257
000020 b7 06 ea 3c 8e 87 80 3c d4 0d 6c 3c d2 3c 7a bd
       0.028567655 0.015689638 0.014407594 -0.06109316
000030 e2 7b 0c 3d de f7 0f bd 8e 49 04 bd 3f c6 56 bd
       0.03429783 -0.035148494 -0.03229671 -0.052435156
000040 7e dc 93 bd a0 43 be 3d fa 0d 1e bd b0 3a 1e bd
       -0.0721979 0.09290242 -0.038587548 -0.038630188
000050 63 5b 6d 3d 3c b3 ef bc 8b cb 0b bd 6e 44 ae bc
       0.05794848 -0.02926027 -0.03412966 -0.021272864
000060 83 fc 43 bd 97 39 e1 bd ad ee 54 3d c2 39 9c 3d
       -0.047848236 -0.109973125 0.05198543 0.07628204
000070 1c 06 30 3d f1 6a ef 3b e5 98 4c 3b f9 83 dd bb
       0.042974576 0.0073064496 0.0031219062 -0.006760117

edge_head.5.weight f4 [32]
000000 6d 5b 7f 3f a2 f0 77 3f b0 71 8a 3f 60 9b 67 3f
       0.9974888 0.9685155 1.0815945 0.9047146
000010 1b 2b 80 3f de 21 8a 3f 93 d8 81 3f 70 d8 86 3f
       1.0013155 1.0791585 1.0144218 1.0534801
000020 a3 eb 83 3f 93 e5 75 3f 5a 67 83 3f 9c 68 7e 3f
       1.0306286 0.9605343 1.0265915 0.9937837
000030 54 6d 77 3f bc 4e 7a 3f 8e cc 7e 3f c8 75 82 3f
       0.96651196 0.9777639 0.99530876 1.0192194
000040 7d 02 8a 3f 88 bf 5e 3f ae 4d 7b 3f 3c 71 6c 3f
       1.0782009 0.87011003 0.98165405 0.9236028
000050 e6 ab 82 3f fa 22 72 3f 7a 98 87 3f 1b 8c 81 3f
       1.0208709 0.9458462 1.0593407 1.0120882
000060 f8 ed 7e 3f a6 ba 83 3f 79 32 6e 3f e4 32 6d 3f
       0.9958186 1.0291336 0.93045765 0.9265578
000070 31 8f 7a 3f eb 59 6f 3f 41 8e 7b 3f 58 ae 7c 3f
       0.9787474 0.9349658 0.9826394 0.9870353

edge_head.5.bias f4 [32]
000000 85 3a 7f 3c 9a b2 a4 bd e5 6a 43 3b 4c ba bf bb
       0.015577917 -0.08041878 0.0029818353 -0.0058510657
000010 4f 10 ce bb 73 e9 07 3b 67 62 56 3d c3 7b d0 bd
       -0.006288565 0.0020738512 0.052339938 -0.10179856
000020 42 45 09 bc 69 65 8f bd e8 f1 93 bd 85 ab d3 bd
       -0.008378329 -0.07001764 -0.07223874 -0.10335449
000030 5a fb 1a bd 2b fc 2f 3d 3e 8d f5 bc 96 50 a7 3d
       -0.037837364 0.042965095 -0.029974576 0.081696674
000040 41 9c b0 bd f3 e0 10 be de 78 35 3d c4 39 c6 3d
       -0.08623553 -0.14148311 0.04430472 0.09678987
000050 66 c4 21 3d 33 97 f1 bd 7c e0 bd 3c 48 31 c8 bc
       0.03949394 -0.11796417 0.023178332 -0.024437562
000060 7f fc 86 3d dc 69 16 3d 0a 8d 5d 3d 29 ca 23 3d
       0.065911286 0.03672205 0.054089583 0.039987717
000070 00 a3 37 bd 7a 04 41 bd cc 89 bd bb a3 bf 47 bd
       -0.044833183 -0.04712341 -0.005784249 -0.048766743

edge_head.5.running_mean f4 [32]
000000 d8 92 6d 3e b3 4c 16 3f 0d a4 76 3e e0 3d 7d 3d
       0.23200548 0.58710784 0.24086018 0.061826587
000010 2b 3a a6 3e d1 e7 73 3e 01 60 c0 3e 8a 02 27 3e
       0.32466254 0.238189 0.37573245 0.16309562
000020 43 4f bb 3e dd fe e3 3e 40 de 48 3f 41 21 df 3d
       0.3658391 0.44530383 0.78464127 0.108950146
000030 a3 e1 33 3f 29 b9 2a 3e c9 b9 1d 3e 55 45 e3 3e
       0.7026617 0.16672195 0.15402903 0.44388834
000040 fd 9c 29 3e f0 a6 60 3f 16 f1 81 3e ed 1d b9 3e
       0.16563793 0.87754726 0.25379246 0.36155644
000050 a4 2c 47 3f 8a 99 8b 3e a6 ae 3c 3e 19 2c 98 3e
       0.7780249 0.27265579 0.18425998 0.29721144
000060 7f 07 e1 3e 32 ca 72 3e a5 39 14 3f ae 90 3b 3f
       0.43951032 0.23709944 0.5790046 0.7326764
000070 5f bf 4e 3f 9c 34 d9 3e a4 c4 4d 3e c3 d9 b3 3e
       0.8076076 0.4242295 0.20094544 0.35127077

edge_head.5.running_var f4 [32]
000000 db 84 50 3e ce 28 7a 3f 51 47 d4 3e e6 a1 d0 3d
       0.2036318 0.97718513 0.4146066 0.1018713
000010 87 82 74 3e 59 5d ad 3e 4e 78 8d 3e 61 c9 7e 3e
       0.23877917 0.3386028 0.27630848 0.24881507
000020 9f 91 09 3f 63 62 cd 3e 27 b9 03 3f b9 30 2a 3e
       0.53737825 0.40114126 0.51454395 0.16620149
000030 ff d1 bf 3f bf 46 47 3e 46 09 80 3e 0f c7 d5 3e
       1.4985961 0.19460581 0.25007075 0.41753432
000040 9d 4a 9a 3e aa 7e 18 3f 45 e2 5f 3e 23 0e 2b 3f
       0.3013505 0.59568274 0.21863659 0.66818446
000050 e5 08 9e 3f 41 bd 6e 3e 67 93 90 3e a7 41 e4 3e
       1.2346464 0.23314382 0.2823746 0.4458134
000060 a9 01 c4 3e 1a 0a d8 3e 3e ba d6 3e 23 e6 14 3f
       0.38282517 0.42195207 0.41938967 0.5816366
000070 52 8e 71 3f 39 5f 1b 3f 2a c8 9b 3e 25 dd 1d 3f
       0.9435779 0.60692173 0.3042615 0.61665565
